main_project/lstm/model/model_mk3.pt (torch, 72367 bytes, 18 tensors)

weight_ih_l0 f4 [80, 88]
-0.19218427 0.12381712 -0.19839866 -0.03637361 0.22100015 0.2819475 -0.13331729 -0.052205876
0.18054755 -0.18321277 -0.13356088 -0.13208498 0.2462694 0.15064006 -0.12768048 0.18343954
-0.02069104 0.19466594 -0.16088656 -0.068740904 0.034634534 -0.03300612 0.17688344 0.10586468
0.16457933 0.14341033 0.0065267133 -0.0083876895 -0.022811156 0.15527466 -0.0014693665 0.05780123
0.023581246 -0.106364965 0.20569131 0.14371575 -0.07589258 -0.008515299 -0.15606993 -0.027662247
0.13987896 -0.010851682 0.24711204 -0.14284876 0.16138072 0.22345625 0.22447047 -0.14258288
-0.028058372 0.08003151 -0.09878243 -0.1803004 0.017763631 -0.20160061 0.02078754 -0.12647684
0.23117872 -0.12874699 -0.17950414 0.14550352 -0.18668813 0.057897184 -0.07749554 0.042873695
-0.06036686 -0.16232766 0.14665304 0.0077643855 -0.018307824 -0.14613196 0.09541428 0.13310641
0.14868231 0.14525121 0.024870249 -0.08866962 0.10045133 -0.23072349 0.0037984045 0.07675897
-0.1940194 -0.094719656 -0.06536661 0.13213629 -0.13599162 0.13226268 -0.08417448 -0.0673507
0.029774928 0.13142897 0.0152128 0.13400151 0.052365985 0.050918143 -0.16539985 -0.11651576
0.19124773 -0.035243854 -0.017451376 0.16064039 0.12801754 0.23423813 0.03741748 -0.0957278
0.15631846 0.18275219 -0.17102788 0.14030397 0.04509589 -0.11849743 -0.28661844 -0.030755484
-0.03601379 0.2259464 -0.003506087 0.10804608 0.17371516 0.27573055 -0.10645652 0.23518151
0.009864422 0.17745842 -0.18182433 0.23808962 0.0858627 -0.13258515 0.10594941 0.2078377
0.22628929 0.043960676 0.1467452 -0.07452493 -0.16645281 -0.022582019 -0.04283659 -0.07501575
0.25181314 -0.015365204 -0.07235052 0.18184797 -0.21597132 0.20772621 -0.06655312 0.09272864
-0.25870723 0.16291219 -0.09535569 -0.12590677 -0.25063932 0.05844314 0.09823656 0.12934725
-0.103013285 -0.21727376 -0.087571055 -0.09962663 0.031504016 -0.14151357 0.19690295 0.20671424
-0.015544106 -0.054294825 -0.06055851 0.15277508 0.010403911 -0.024270838 -0.100418255 -0.0010856218
0.16558586 0.20402703 0.26371464 0.20768061 -0.12968896 0.17894812 0.1468026 0.24020658
-0.1211731 -0.18415575 -0.17621632 0.15141697 -0.0348401 0.1740622 0.10446332 -0.07207167
-0.22373828 0.16725236 -0.06631786 0.03817935 0.017624455 0.14616491 0.12107571 0.10455523
0.12544224 0.17095372 0.020464975 -0.19356927 0.0918081 -0.089460544 0.08261318 -0.20376572
0.024168458 -0.11524 -0.04213712 -0.1751271 -0.12855087 -0.034303248 -0.098001055 -0.17513673
0.0571115 -0.099616274 -0.00447767 -0.016785359 -0.22018635 -0.08479645 -0.048458178 0.019857224
-0.18600298 0.15567553 -0.06685217 0.11536898 -0.007295249 -0.1524375 0.097958565 -0.057925686
-0.080325186 -0.028980022 0.057952512 0.23286979 -0.049205434 -0.054516796 0.23517501 0.07681858
0.09340821 0.1480597 0.07843458 0.13845561 0.061528623 0.18278702 -0.0085605765 0.010845574
0.20120315 0.09133478 0.12495165 0.07615407 -0.04256045 -0.029652014 0.11507696 -0.12271166
-0.031700946 -0.16355222 0.20219752 0.22475958 0.037725333 -0.19377594 -0.04472909 0.19498575
00000000: f4cb 44be d593 fd3d 0529 4bbe 7ffc 14bd
00000010: dd4d 623e 6c5b 903e 5484 08be d4d5 55bd
00000020: 75e1 383e 219c 3bbe 2fc4 08be 4941 07be
00000030: 0c2e 7c3e 6341 1a3e acbe 02be 93d7 3b3e
00000040: 4280 a9bc 8256 473e 72bf 24be 08c8 8cbd
00000050: f1dc 0d3d 6d31 07bd ef20 353e 95cf d83d
00000060: 7c87 283e 28da 123e 0ade d53b 856c 09bc
00000070: 76de babc 5200 1f3e c297 c0ba fcc0 6c3d
00000080: 752d c13c e0d5 d9bd bea0 523e 392a 133e
00000090: 926d 9bbd c183 0bbc ccd0 1fbe f09b e2bc
000000a0: 6e3c 0f3e 41cb 31bc f00a 7d3e f246 12be
000000b0: fd40 253e b7d1 643e 96db 653e 3f01 12be
000000c0: acda e5bc 8fe7 a33d 714e cabd aba0 38be
000000d0: 0985 913c 6470 4ebe a24a aa3c 2583 01be
000000e0: 1dba 6c3e 40d6 03be efcf 37be e0fe 143e
000000f0: 2c2b 3fbe 9925 6d3d fbb5 9ebd 549c 2f3d
00000100: 3e43 77bd 3939 26be 372c 163e 636c fe3b
00000110: 4afa 95bc 9ea3 15be 9068 c33d 0c4d 083e
00000120: 2d40 183e bcbc 143e b1bc cb3c 6b98 b5bd
00000130: 6db9 cd3d c742 6cbe a7ee 783b cf33 9d3d
00000140: 06ad 46be 61fc c1bd eede 85bd bc4e 073e
00000150: 6341 0bbe de6f 073e ab63 acbd 2aef 89bd
00000160: 8dea f33c 5195 063e 1c3f 793c b137 093e
00000170: b77d 563d 8b8f 503d 945e 29be d19f eebd
00000180: 72d6 433e dc5b 10bd 30f6 8ebc ea7e 243e
00000190: 0817 033e 1fdc 6f3e 1243 193d f00c c4bd
000001a0: f211 203e 6423 3b3e ef21 2fbe d8ab 0f3e
000001b0: 78b6 383d c8ae f2bd a7bf 92be edf2 fbbc
000001c0: 3283 13bd 7e5e 673e 61c6 65bb 4347 dd3d
000001d0: 63e2 313e 8e2c 8d3e e005 dabd 6cd3 703e
000001e0: 629e 213c a9b7 353e 2830 3abe c4cd 733e
000001f0: c9d8 af3d 67c4 07be 01fc d83d 68d3 543e
00000200: 61b8 673e 1c10 343d 6044 163e 87a0 98bd
00000210: 9b72 2abe edfd b8bc 6c75 2fbd dca1 99bd
00000220: a7ed 803e 56be 7bbc 822c 94bd 5b36 3a3e
00000230: 9627 5dbe 2eb6 543e 014d 88bd 83e8 bd3d
00000240: 4675 84be 74d2 263e d849 c3bd b4ed 00be
00000250: cc53 80be 1362 6f3d 4030 c93d 9b73 043e
00000260: a1f8 d2bd 037d 5ebe 7458 b3bd 0c09 ccbd
00000270: 5b0a 013d efe8 10be eda0 493e e6ac 533e
00000280: b5ac 7ebc 4064 5ebd 330c 78bd 1271 1c3e
00000290: 2a75 2a3c a3d3 c6bc 16a8 cdbd 6c4b 8eba
000002a0: 578f 293e 76ec 503e 9b05 873e 3aaa 543e
000002b0: 2fcd 04be 2d3e 373e 6c53 163e b7f8 753e
000002c0: 9a29 f8bd 5393 3cbe 0d72 34be 0d0d 1b3e
000002d0: 7eb4 0ebd 5d3d 323e ddf0 d53d 509a 93bd
000002e0: a61b 65be 3444 2b3e a8d1 87bd f361 1c3d
000002f0: 2961 903c 41ac 153e 8bf6 f73d 0d21 d63d
00000300: ee73 003e 7e0e 2f3e 2aa6 a73c 0637 46be
00000310: e305 bc3d 1737 b7bd 1931 a93d f6a7 50be
00000320: eefc c53c f302 ecbd f997 2cbd 8554 33be
00000330: d7a2 03be 9081 0cbd c7b4 c8bd 0b57 33be
00000340: c0ed 693d 9e03 ccbd 6bb9 92bb 7381 89bc
00000350: 8878 61be c3a9 adbd 157c 46bd 9eab a23c
00000360: 9177 3ebe 6869 1f3e cae9 88bd 9246 ec3d
00000370: fc0c efbb 9318 1cbe 809e c83d 7c43 6dbd
00000380: 8881 a4bd 8367 edbc 9d5f 6d3d 6b75 6e3e
00000390: a38b 49bd 014d 5fbd b8d1 703e 0f53 9d3d
000003a0: ce4c bf3d f69c 173e 4fa2 a03d 4fc7 0d3e
000003b0: 7005 7c3d 852c 3b3e a941 0cbc a2b1 313c
000003c0: 3308 4e3e bb0d bb3d a7e6 ff3d aaf6 9b3d
000003d0: de53 2ebd c8e8 f2bc 78ad eb3d 4050 fbbd
000003e0: dad8 01bd 3c7a 27be de0c 4f3e 6027 663e
000003f0: e185 1a3d 336d 46be da35 37bd 58aa 473e

weight_hh_l0 f4 [80, 20]
-0.13114692 0.08387965 0.1142659 0.08299376 0.2108022 -0.17238456 -0.128586 -0.04426394
0.14653336 0.008995331 -0.17915851 -0.070969135 -0.13536559 0.061010607 0.08434795 0.06662647
-0.18424872 -0.07239649 -0.0012198411 -0.102933705 0.044977136 0.15152071 0.033631627 0.20238577
-0.13377056 0.021589506 -0.03881945 0.1767334 0.07002854 -0.22156297 0.108657375 -0.15390979
-0.119518496 -0.022741497 0.042073015 0.14558628 0.11510781 0.27764314 -0.119082175 -0.07507643
0.22874238 -0.06537955 0.10249668 0.08897589 0.0939064 -0.13460405 0.17121199 -0.1238951
0.030610185 0.13740659 -0.1515471 0.021976773 0.113708586 0.1057139 0.15644653 0.012177254
0.15742382 0.17556737 0.1759963 -0.21488534 0.0027940986 -0.032813374 -0.16841073 0.0027509732
0.01734779 -0.0750415 -0.11091687 -0.18044518 -0.09457012 -0.067194946 0.021633008 0.19794005
-0.2544226 0.1525626 0.16109547 0.023175765 -0.040090673 0.17457822 0.17953157 0.020743227
-0.1800734 0.12444335 0.18218024 0.1990402 -0.19932833 0.18549874 0.24038444 0.021273285
0.046248272 0.13999966 -0.106128074 0.15413143 -0.19056636 -0.024132697 0.23868671 0.07003261
0.17979114 -0.14101508 0.029207377 0.18256517 0.20414765 -0.11664329 -0.063672744 0.05819348
0.106994085 -0.020414863 -0.17094561 -0.115059346 -0.059195064 0.13535568 0.096013084 -0.032505386
0.15568222 -0.15568416 0.120005764 0.02223209 -0.0865324 -0.048253074 -0.03756484 -0.10918092
0.11754082 -0.27489617 -0.13780238 -0.03732571 0.016953051 0.019777104 -0.015424234 0.04553122
-0.09224749 0.25938877 0.20731698 -0.18888542 0.14906828 0.16088806 0.0053732167 0.04670796
0.25859964 0.22625677 0.13173226 -0.14207938 0.08531893 -0.17018044 0.14841065 -0.018445205
0.22732995 0.15158159 -0.16670464 0.049969167 -0.08263616 0.27229115 -0.030213187 -0.21837452
0.14181672 -0.08158218 -0.083584465 0.16374688 -0.022010472 0.061286267 0.23896249 -0.07634032
0.07751545 -0.13172992 -0.08830022 -0.17636107 0.15341564 0.12068395 0.05896959 0.17115875
-0.06381988 0.010122883 0.10494445 -0.28703773 -0.15386115 -0.0838066 -0.031443033 0.048269276
-0.11787179 -0.13902447 -0.011922642 -0.024653263 0.16222385 0.13942556 0.16628489 -0.14648809
0.006034767 -0.13468444 -0.091457486 -0.19942604 0.09412849 -0.10344869 -0.12490593 -0.11667841
-0.057712052 -0.17047976 -0.21701895 -0.010416583 0.039141532 -0.16896823 -0.2008087 0.14806916
0.22151026 -0.06643281 -0.23321836 -0.15771675 -0.17762521 -0.060004067 -0.20008714 -0.091891326
-0.13711058 -0.13096358 -0.016595954 -0.005681544 0.10389967 0.07508873 0.14501393 -0.1327778
0.20203607 -0.110773735 0.10371419 0.027195953 0.2778058 -0.06282789 0.14072305 0.010250249
0.16511461 0.23878238 0.13687561 0.25133964 0.22162136 0.1293924 -0.19683456 -0.06357471
-0.072549134 -0.097116195 0.045688186 0.092890225 -0.061844766 0.06363677 0.09043501 -0.2082377
-0.06102067 0.061483555 -0.0056151343 0.0015957921 -0.14015992 -0.10254226 -0.012193613 -0.06473818
0.21930489 0.1099444 -0.24308933 0.18740857 0.030035377 0.23259881 -0.12088207 0.29449847
00000000: 614b 06be 18c9 ab3d 3d04 ea3d a2f8 a93d
00000010: 88dc 573e 9485 30be 0cac 03be 1b4e 35bd
00000020: d70c 163e 2761 133c 5475 37be 4458 91bd
00000030: 479d 0abe 42e6 793d 9ebe ac3d 7573 883d
00000040: b2ab 3cbe 9c44 94bd 13e3 9fba e8ce d2bd
00000050: f239 383d 3f28 1b3e 51c1 093d 373e 4f3e
00000060: 26fb 08be 7adc b03c 2501 1fbd 9af9 343e
00000070: 206b 8f3d 67e1 62be c287 de3d 879a 1dbe
00000080: 1dc6 f4bd 604c babc c154 2c3d 9214 153e
00000090: a5bd eb3d 3e27 8e3e 5be1 f3bd acc1 99bd
000000a0: 713b 6a3e b7e5 85bd c8e9 d13d fe38 b63d
000000b0: 0052 c03d a5d5 09be 3252 2f3e b7bc fdbd
000000c0: 36c2 fa3c 50b4 0c3e 2a2f 1bbe a208 b43c
000000d0: 0ce0 e83d 8780 d83d 8533 203e 1b83 473c
000000e0: b633 213e efc7 333e 6038 343e e70a 5cbe
000000f0: 321d 373b 5167 06bd dd73 2cbe ac49 343b
00000100: f41c 8e3c 5caf 99bd 6228 e3bd 9fc6 38be
00000110: fbad c1bd 819d 89bd b537 b13c ccb0 4a3e
00000120: ae43 82be 5f39 1c3e 36f6 243e 1adb bd3c
00000130: 1e36 24bd a2c4 323e 20d7 373e b3ed a93c
00000140: 2965 38be 28dc fe3d 758d 3a3e 32d1 4b3e
00000150: ba1c 4cbe 62f3 3d3e 5727 763e 5045 ae3c
00000160: d46e 3d3d 125c 0f3e ad59 d9bd a1d4 1d3e
00000170: d423 43be efb1 c5bc 4a6a 743e 426d 8f3d
00000180: 2b1b 383e 4266 10be 4f44 ef3c 5df2 3a3e
00000190: 150c 513e ade2 eebd db66 82bd 495c 6e3d
000001a0: b71f db3d 123d a7bc 5e0c 2fbe 3ca4 ebbd
000001b0: 8676 72bd ae9a 0a3e 82a2 c43d 5e24 05bd
000001c0: 296b 1f3e ab6b 1fbe 95c5 f53d 1220 b63c
000001d0: e637 b1bd 04a5 45bd 97dd 19bd 3f9a dfbd
000001e0: 3eb9 f03d 31bf 8cbe 111c 0dbe d8e2 18bd
000001f0: 20e1 8a3c 9803 a23c edb5 7cbc f27e 3a3d
00000200: 41ec bcbd 9bce 843e e74a 543e 2e6b 41be
00000210: 5ba5 183e d7bf 243e cf11 b03b d950 3f3d
00000220: 2c67 843e dbaf 673e d2e4 063e 427d 11be
00000230: b1bb ae3d c843 2ebe f6f8 173e 661a 97bc
00000240: 2fc9 683e 3438 1b3e 9fb4 2abe 78ac 4c3d
00000250: 263d a9bd bf69 8b3e a581 f7bc 929d 5fbe
00000260: 6738 113e 8f14 a7bd 552e abbd 43ad 273e
00000270: 4e4f b4bc 4f07 7b3d 95b2 743e 5058 9cbd
00000280: 6cc0 9e3d 35e4 06be bfd6 b4bd ff97 34be
00000290: fd18 1d3e 2629 f73d 198a 713d 3d44 2f3e
000002a0: ffb3 82bd 73da 253c 1eed d63d 9cf6 92be
000002b0: c78d 1dbe cba2 abbd 69ca 00bd 01b6 453d
000002c0: c466 f1bd 6e5c 0ebe 2f57 43bc a4f5 c9bc
000002d0: 021e 263e 93c5 0e3e 9646 2a3e f900 16be
000002e0: 4bbf c53b b8ea 09be 104e bbbd 5736 4cbe
000002f0: 70c6 c03d e8dc d3bd aece ffbd 17f5 eebd
00000300: 7963 6cbd 3f92 2ebe 373a 5ebe 51aa 2abc
00000310: df52 203d 0206 2dbe cca0 4dbe 719f 173e
00000320: 96d3 623e ed0d 88bd cbd0 6ebe 8080 21be
00000330: 62e3 35be d3c6 75bd a5e3 4cbe 8531 bcbd
00000340: b766 0cbe 511b 06be 3df4 87bc 3f2c babb
00000350: 5ac9 d43d 1fc8 993d 887e 143e e7f6 07be
00000360: 8be2 4e3e 57dd e2bd 1b68 d43d 0cca de3c
00000370: 903c 8e3e e9ab 80bd b419 103e a9f0 273c
00000380: ce13 293e 5e83 743e 1f29 0c3e 97af 803e
00000390: b6f0 623e 717f 043e 008f 49be 7533 82bd
000003a0: a494 94bd dbe4 c6bd 8923 3b3d 3b3d be3d
000003b0: f050 7dbd ff53 823d fe35 b93d 433c 55be
000003c0: cff0 79bd 2ed6 7b3d 29ff b7bb e629 d13a
000003d0: 1586 0fbe ad01 d2bd b8c7 47bc 7395 84bd
000003e0: 7691 603e 882a e13d 69ec 78be 08e8 3f3e
000003f0: c00c f63c 622e 6e3e 0591 f7bd 81c8 963e

bias_ih_l0 f4 [80]
-0.18980783 0.026242463 0.03275656 0.15454474 0.1081635 -0.009562906 0.09629229 0.16619013
0.082742326 0.21165653 0.22093326 0.2505371 0.067035384 -0.108452715 0.085758634 0.0045532356
-0.024357228 0.23903592 0.07644357 0.064007886 0.113540076 0.021203924 -0.0007781423 0.07918307
-0.07604495 -0.21568604 0.03439533 0.037124146 0.11658111 0.11370176 0.038676318 0.20821556
0.2422672 0.060388196 0.054226536 0.23006569 -0.12307713 -0.1323882 -0.113518886 0.08429183
0.16090344 -0.03590946 0.19624484 -0.029599011 0.15218407 0.13322157 0.191846 -0.08677773
0.105142176 -0.17316999 0.22055398 0.030238556 0.03550273 -0.22554374 0.20454066 -0.0018442456
0.16846457 -0.010603238 -0.10627603 -0.052692335 -0.04286911 -0.06731152 -0.039923348 0.20646116
0.016037844 0.04005371 -0.041503705 0.14213862 -0.082054876 0.008084901 0.19467545 0.27471885
0.08725369 -0.02138464 -0.13973351 -0.0088552935 -0.11801152 -0.14026989 0.015129964 -0.12837529
00000000: fc5c 42be 6ffa d63c be2b 063d fa40 1e3e
00000010: d384 dd3d bcad 1cbc e434 c53d bf2d 2a3e
00000020: cf74 a93d 7dbc 583e 543c 623e 6646 803e
00000030: d949 893d 751c debd 39a2 af3d 4f33 953b
00000040: cf88 c7bc d5c5 743e 728e 9c3d 9116 833d
00000050: b387 e83d dab3 ad3c 3ffc 4bba bc2a a23d
00000060: 74bd 9bbd cddc 5cbe 1ee2 0c3d 7d0f 183d
00000070: 14c2 ee3d 78dc e83d 0f6b 1e3d 7636 553e
00000080: e514 783e 9d59 773d a51c 5e3d 5796 6b3e
00000090: dd0f fcbd c690 07be 977c e8bd 32a1 ac3d
000000a0: dfc3 243e cc15 13bd 68f4 483e a079 f2bc
000000b0: 24d6 1b3e 3c6b 083e 4773 443e 86b8 b1bd
000000c0: c854 d73d 7953 31be e7d8 613e d9b6 f73c
000000d0: 506b 113d f0f4 66be 1b73 513e 9dba f1ba
000000e0: fa81 2c3e 34b9 2dbc 3fa7 d9bd ebd3 57bd
000000f0: 8597 2fbd 9fda 89bd aa86 23bd 8e6a 533e
00000100: cc61 833c 5c0f 243d caff 29bd c98c 113e
00000110: 630c a8bd 8876 043c 0059 473e f3a7 8c3e
00000120: 10b2 b23d d72e afbc 4d16 0fbe cb15 11bc
00000130: 06b0 f1bd e9a2 0fbe abe3 773c d074 03be

bias_hh_l0 f4 [80]
0.13636799 0.22613896 -0.1296033 -0.064629294 -0.031205336 -0.024958469 -0.15766397 0.23150064
-0.11078941 -0.1085295 -0.16158903 0.24290639 0.123458594 -0.0438657 0.007633645 -0.1438222
-0.08848928 0.12464031 0.25779966 -0.09545894 0.2369134 -0.086017445 -0.11916244 0.26035485
-0.026406003 -0.030757912 0.13472404 -0.041024704 -0.10969793 -0.030424492 0.18298727 -0.018491501
-0.15269557 -0.11571718 0.19251408 -0.13291663 0.10762674 0.093384944 0.12526163 0.12940873
0.24459751 0.18229097 -0.046354532 0.1868233 -0.15276901 -0.08477824 -0.14532842 -0.20949817
0.029439932 -0.20501558 -0.16706124 -0.084501594 -0.10653617 0.014231198 0.06728781 0.18110673
0.027569462 -0.04236179 0.13956438 0.009415451 0.16147366 0.028502606 0.06594302 0.24780577
0.04720757 -0.14977697 0.07808027 0.21719772 -0.1601684 -0.08183922 -0.1894729 0.094839945
0.105895974 0.12774083 0.23688295 0.02972333 0.13691178 -0.16997233 0.17665038 -0.025312401
00000000: 0da4 0b3e f990 673e bab6 04be 5d5c 84bd
00000010: 55a2 ffbc b475 ccbc aa72 21be 810e 6d3e
00000020: 8fe5 e2bd b744 debd 9877 25be 74bc 783e
00000030: dcd7 fc3d 85ac 33bd a823 fa3b 2046 13be
00000040: de39 b5bd 6b43 ff3d 51fe 833e fa7f c3bd
00000050: 6d99 723e ea29 b0bd 700b f4bd 3b4d 853e
00000060: 6751 d8bc 04f8 fbbc 19f5 093e 8509 28bd
00000070: 4fa9 e0bd c93c f9bc 0461 3b3e 7d7b 97bc
00000080: 3a5c 1cbe 21fd ecbd 6922 453e 4c1b 08be
00000090: 696b dc3d 9b40 bf3d 9644 003e b983 043e
000000a0: c577 7a3e 7caa 3a3e 40de 3dbd 9b4e 3f3e
000000b0: 7b6f 1cbe 37a0 adbd f9d0 14be b086 56be
000000c0: 032c f13c 9bef 51be 1a12 2bbe 2c0f adbd
000000d0: a32f dabd f829 693c 31ce 893d 0b74 393e
000000e0: 5ad9 e13c 8e83 2dbd f7e9 0e3e 4443 1a3c
000000f0: 5a59 253e 4c7e e93c 220d 873d ccc0 7d3e
00000100: ba5c 413d 225f 19be 8ce8 9f3d 1469 5e3e
00000110: 2f03 24be 529b a7bd 2f05 42be 723b c23d
00000120: fddf d83d 7ece 023e 7291 723e 577e f33c
00000130: 9a32 0c3e 3a0d 2ebe d6e3 343e f45b cfbc

weight_ih_l1 f4 [80, 20]
-0.10599358 -0.22326332 0.018577084 0.2666598 -0.19267075 0.12282345 0.19801554 0.28567615
0.20632267 0.08641504 0.067897804 0.031743564 -0.10691463 -0.044167235 0.19141574 -0.012151675
0.14988922 0.074958965 -0.1391779 -0.27820534 -0.21258026 -0.15776001 0.1314806 0.15219423
0.21840969 0.22760452 -0.16580419 -0.041167002 -0.020021295 -0.047432218 -0.21731932 -0.0021565089
0.12977453 0.00044592255 0.04728696 -0.0727782 0.06395954 0.20470738 0.17106746 -0.23653573
0.20794514 -0.24757709 -0.086299606 0.21281286 0.12855132 0.07326033 -0.050590023 0.004508093
-0.066549174 -0.06335824 -0.07165984 -0.17076753 -0.33362886 -0.018867826 -0.11610495 0.013992563
-0.08370229 0.16743432 0.15881395 -0.20004013 0.01520644 -0.15495999 0.055172414 -0.21692938
-0.1568938 0.07563118 0.057317574 0.06259759 0.080591775 0.029670477 -0.05030295 -0.15112372
-0.26746687 0.13806085 -0.03500715 -0.04756448 0.12563895 0.24414326 -0.09131977 -0.2277327
0.007636071 -0.1410695 -0.040119085 0.21906164 -0.16688667 -0.20641942 -0.06435162 0.14311495
0.08291712 0.011505648 0.053173535 -0.04808123 0.23360267 -0.11577347 -0.111123554 0.021962047
-0.19450137 -0.017798591 -0.07014125 0.13040614 -0.12234503 -0.17960264 0.14088134 0.2320104
0.19169483 -0.07196967 0.028408607 0.043255404 0.1312515 -0.05772076 0.062833846 -0.09688979
-0.17993559 0.031330857 -0.14050251 0.062478185 0.1555672 0.114610985 -0.11140892 -0.22167824
0.19760697 0.1406495 -0.026073199 -0.017558971 0.13406214 -0.0645822 0.25192901 0.16750309
0.16512632 -0.010122177 -0.10597908 -0.07964882 -0.17002521 0.07211271 -0.117485605 -0.101250306
0.18628101 -0.009134007 -0.0026234596 -0.05210381 0.2665424 -0.050471354 0.103365205 0.18885912
-0.04070042 -0.032971323 0.22596623 0.055108532 0.20939712 0.047611505 -0.18258056 0.10395987
-0.21762925 0.0070633213 -0.1719508 0.25581402 -0.0050118477 0.19386591 -0.2153184 -0.21411519
0.0503758 -0.067841195 -0.016292647 0.01425744 -0.16095138 -0.098713525 0.26718855 0.07891148
0.12691951 0.13086171 -0.03999938 0.099702194 0.12653069 -0.011526267 0.15150961 0.2185544
0.081444904 -0.12059018 -0.023556596 0.093911506 -0.07649396 0.13909079 -0.2513621 0.16078962
0.037336323 0.15934472 -0.08027702 0.14442937 0.28117383 -0.1809651 -0.1703413 0.1452688
-0.2132725 0.13874763 0.27291167 -0.09316953 -0.11437011 0.25197017 -0.10153991 -0.04239142
-0.11625281 0.08558236 -0.18679808 -0.08979234 -0.038185444 0.13819203 0.016500738 -0.049349036
0.102323435 0.10344996 0.19242157 -0.08043874 -0.21923178 0.19004634 0.2371066 0.05958781
0.29164132 -0.09271356 0.29327214 -0.053814378 0.17956363 -0.016485441 -0.14789051 -0.11085994
-0.15695132 0.07014991 0.26497728 0.20236082 0.059372645 0.14577672 -0.13367663 -0.058844574
-0.0789709 0.16041778 -0.20956127 0.23578313 -0.13633913 0.07228808 -0.08679615 0.13257171
0.22772491 -0.22390899 0.14761224 -0.1672792 -0.10981558 0.03703697 0.039146557 0.16173479
0.25231984 0.15377957 0.057566814 -0.035568364 -0.2525773 0.12474104 0.111229084 -0.016193496
00000000: 2913 d9bd 249f 64be f82e 983c a287 883e
00000010: 7b4b 45be dc8a fb3d 96c4 4a3e 2544 923e
00000020: 4046 533e 5efa b03d 010e 8b3d 8a05 023d
00000030: 0ff6 dabd b4e8 34bd 7d02 443e d217 47bc
00000040: 8f7c 193e 1684 993d a784 0ebe ee70 8ebe
00000050: a4ae 59be d78b 21be daa2 063e ced8 1b3e
00000060: caa6 5f3e 2911 693e 93c8 29be bb9e 28bd
00000070: b303 a4bc 4948 42bd f588 5ebe 3754 0dbb
00000080: 9de3 043e b6ca e939 f9af 413d bd0c 95bd
00000090: 38fd 823d d09e 513e 4f2c 2f3e 6c36 72be
000000a0: 92ef 543e d984 7dbe d9bd b0bd 9deb 593e
000000b0: f5a2 033e 8309 963d 7c37 4fbd a0b8 933b
000000c0: ef4a 88bd f7c1 81bd 65c2 92bd afdd 2ebe
000000d0: 67d1 aabe b390 9abc 6fc8 edbd 1041 653c
000000e0: 1b6c abbd e773 2b3e 20a0 223e 52d7 4cbe
000000f0: 6f24 793c d5ad 1ebe 78fc 613d bc22 5ebe
00000100: c5a8 20be 85e4 9a3d d5c5 6a3d 2a33 803d
00000110: 4d0d a53d 800f f33c 770a 4ebd 2dc0 1abe
00000120: 6bf1 88be d35f 0d3e a863 0fbd f9d2 42bd
00000130: 7fa7 003e b100 7a3e dc05 bbbd c332 69be
00000140: 0238 fa3b 8674 10be e953 24bd b251 603e
00000150: 57e4 2abe 9d5f 53be c8ca 83bd ba8c 123e
00000160: 73d0 a93d 2f82 3c3c 7ecc 593d d3f0 44bd
00000170: 8a35 6f3e a41a edbd bf94 e3bd c0e9 b33c
00000180: 5e2b 47be 5ace 91bc 37a6 8fbd 3089 053e
00000190: 0890 fabd c1e9 37be 3343 103e 2294 6d3e
000001a0: a64b 443e d664 93bd 2bb9 e83c 942c 313d
000001b0: cb66 063e 9b6c 6cbd 08af 803d 276e c6bd
000001c0: 0941 38be c954 003d e4df 0fbe 20e9 7f3d
000001d0: 024d 1f3e 2ab9 ea3d 5c2a e4bd 9fff 62be
000001e0: 7b59 4a3e 6c06 103e 7697 d5bc d5d7 8fbc
000001f0: 9647 093e ac43 84bd d7fc 803e ee85 2b3e
00000200: e016 293e 7dd7 25bc 8f0b d9bd ec1e a3bd
00000210: 171b 2ebe d4af 933d 4b9c f0bd 525c cfbd
00000220: 73c0 3e3e cda6 15bc 59ee 2bbb ce6a 55bd
00000230: 3f78 883e 0dbb 4ebd 23b1 d33d 4964 413e
00000240: 7cb5 26bd f00c 07bd b163 673e 7cb9 613d
00000250: 336c 563e 4804 433d 66f6 3abe eae8 d43d
00000260: 34da 5ebe 6f73 e73b df13 30be 0efa 823e
00000270: 6d3a a4bb c984 463e 6d7c 5cbe 0341 5bbe
00000280: db56 4e3d 53f0 8abd 2878 85bc 0a98 693c
00000290: 70d0 24be 512a cabd f0cc 883e 589c a13d
000002a0: 30f7 013e 9d00 063e 64d6 23bd aa30 cc3d
000002b0: 4391 013e abd8 3cbc 5625 1b3e bacc 5f3e
000002c0: 96cc a63d fcf7 f6bd c3f9 c0bc ad54 c03d
000002d0: dea8 9cbd d16d 0e3e 88b2 80be 09a6 243e
000002e0: f9ed 183d 432b 233e 4768 a4bd 4be5 133e
000002f0: 04f6 8f3e ea4e 39be f36d 2ebe 58c1 143e
00000300: 1b64 5abe dc13 0e3e 14bb 8b3e abcf bebd
00000310: e03a eabd 3c02 813e 28f4 cfbd a0a2 2dbd
00000320: f415 eebd ce45 af3d ff47 3fbe 0ce5 b7bd
00000330: 5768 1cbd 3682 0d3e 8e2c 873c 3722 4abd
00000340: f38e d13d 93dd d33d 290a 453e 11bd a4bd
00000350: 4c7e 60be 829b 423e 13cc 723e 5912 743d
00000360: 0352 953e 9be0 bdbd c427 963e 776c 5cbd
00000370: 87df 373e 7a0c 87bc 9c70 17be 890a e3bd
00000380: d9b7 20be c2aa 8f3d 1aab 873e ad37 4f3e
00000390: bb30 733d 7e46 153e 87e2 08be 0207 71bd
000003a0: 7fbb a1bd 8f44 243e 3b97 56be 2271 713e
000003b0: 7c9c 0bbe c60b 943d 2ec2 b1bd e1c0 073e
000003c0: b830 693e 6648 65be aa27 173e 3d4b 2bbe
000003d0: fee6 e0bd 14b4 173d 2458 203d ce9d 253e
000003e0: 1130 813e 6478 1d3e 2ecb 6b3d 22b0 11bd
000003f0: d051 81be 3b78 ff3d 13cc e33d 39a8 84bc

weight_hh_l1 f4 [80, 20]
0.110279195 0.07361866 0.15598857 0.04039023 0.13808551 -0.26022518 -0.093119994 -0.04373566
-0.30305895 0.01389587 -0.26690906 -0.16536784 0.2757478 0.050714895 0.0838563 -0.103572
0.13209246 -0.0021346572 -0.11776265 -0.052286502 -0.050368216 -0.16525306 0.015991522 -0.0026027437
0.19088966 -0.17438337 0.13345146 -0.02981401 0.06714211 0.1722729 0.2236859 -0.22947775
-0.12023767 0.09169607 -0.15200546 0.0052182693 0.09017027 0.14563926 -0.0011233166 0.07596464
-0.2280959 -0.11608526 -0.028228756 -0.17206463 -0.042072173 -0.12074578 0.18971191 0.22851482
-0.25650948 0.07164534 -0.15991685 -0.15784371 0.2998591 -0.1902686 -0.09409294 0.096092194
-0.18165624 0.1546068 -0.077919565 -0.13217035 0.11910775 -0.16298646 -0.22351532 0.13651827
0.03581811 0.020672675 0.10626621 -0.043102104 -0.07193047 0.13698536 -0.07102148 -0.061264284
-0.17115498 -0.21813434 -0.08145927 0.049238175 0.16394693 -0.13001662 -0.15965511 0.19684608
0.1082204 0.14924619 0.19475228 -0.1369161 0.03312861 -0.24313504 0.04403106 0.048755895
0.16804197 -0.00074711576 -0.1894972 0.12464911 -0.021138785 0.1477217 0.14686812 0.13126619
0.11194645 0.21718027 -0.047072124 0.021362917 -0.072276354 -0.015909031 0.0742062 -0.20954487
0.18800648 -0.20889065 -0.14061998 -0.03426465 0.16824685 0.10060362 0.14634942 -0.013206096
-0.18034929 -0.12607011 -0.21086031 0.10590225 -0.22790417 0.088576555 -0.15118922 0.151725
-0.22771247 0.27033952 -0.2923687 -0.0896248 -0.13394919 -0.053316075 0.10724178 -0.12338338
0.107067466 -0.043059547 -0.28299507 -0.080734044 0.23589079 -0.25279808 -0.08726176 0.17641476
-0.01810037 -0.052873533 -0.11016034 -0.088191934 -0.027054701 0.020010972 0.15548494 0.09366393
0.16604778 -0.0501144 -0.036988944 -0.042393558 -0.089522906 0.06376693 -0.015324255 -0.26028463
0.20321602 -0.077123895 0.068134345 -0.1642751 -0.10408852 0.30074254 0.052547615 0.01385822
0.02818405 0.18920974 -0.013282299 0.0357488 0.18446779 0.04069016 -0.018461337 0.26404506
0.04842061 0.0428995 -0.027442994 -0.21232279 0.22297925 -0.08908298 0.16889063 0.03222023
0.090353824 0.09930983 -0.089026436 0.020299425 -0.25771734 0.08993006 -0.108724214 -0.15809707
0.105851725 -0.23301412 -0.05204338 -0.1551364 -0.13359904 -0.026504595 0.0183607 0.04921768
0.051748812 -0.08897032 -0.09374521 0.07915006 0.062152486 0.24162023 0.0052570635 0.0077759395
0.034927227 0.06762226 -0.19027543 0.046007857 0.18890795 0.175289 -0.130998 -0.020224145
0.02651813 0.18650733 -0.18904158 -0.26959023 -0.18907723 0.0070356885 0.16132206 0.013841773
-0.012176248 0.12634763 -0.120754994 0.0931765 0.0663105 0.068745606 -0.24071822 -0.027698215
0.2917397 -0.102827065 0.11408258 0.21491355 -0.14161745 0.051515818 -0.080418855 0.06098304
0.28518015 0.23760794 -0.12724727 -0.21059987 -0.23020333 0.15794225 -0.043681305 0.17261747
-0.26847464 -0.030734211 0.018036263 -0.10366466 -0.120996125 0.09548737 0.093089096 -0.21768367
0.11846589 -0.070582405 -0.18343668 -0.2332595 0.18527678 -0.12319862 -0.05137359 0.017656704
00000000: 0fda e13d 61c5 963d 78bb 1f3e 3a70 253d
00000010: 4a66 0d3e 3c3c 85be b2b5 bebd 2a24 33bd
00000020: 8b2a 9bbe 81ab 633c 4ea8 88be 3056 29be
00000030: d12e 8d3e 6cba 4f3d dabc ab3d 8f1d d4bd
00000040: 3f43 073e 9be5 0bbb 8b2d f1bd 5f2a 56bd
00000050: e74e 4ebd 1938 29be a700 833c cb92 2abb
00000060: 9478 433e 8e91 32be 80a7 083e 833c f4bc
00000070: cd81 893d 4f68 303e eb0d 653e 37fc 6abe
00000080: 2b3f f6bd 26cb bb3d 52a7 1bbe 04fe aa3b
00000090: 31ab b83d 7522 153e 403c 93ba 5993 9b3d
000000a0: f991 69be 1cbe edbd fe3f e7bc b631 30be
000000b0: df53 2cbd 9049 f7bd d743 423e caff 693e
000000c0: 3655 83be cbba 923d 3ec1 23be c8a1 21be
000000d0: 2287 993e c6d5 42be cdb3 c0bd fccb c43d
000000e0: 1804 3abe 3f51 1e3e 4b94 9fbd aa57 07be
000000f0: c4ee f33d ece5 26be 33e1 64be 72cb 0b3e
00000100: 03b6 123d be59 a93c 19a2 d93d d58b 30bd
00000110: 4850 93bd e445 0c3e b673 91bd 42f0 7abd
00000120: 4043 2fbe 9c5e 5fbe 1ed4 a6bd f8ad 493d
00000130: b4e1 273e 1423 05be a17c 23be 0592 493e
00000140: a8a2 dd3d fed3 183e 246d 473e bc33 0cbe
00000150: deb1 073d 64f8 78be ea59 343d 43b4 473d
00000160: 3213 2c3e 17da 43ba 8e0b 42be 0848 ff3d
00000170: 3f2b adbc 5b44 173e 9964 163e a56a 063e
00000180: 2e44 e53d 8164 5e3e b3ce 40bd 4901 af3c
00000190: a005 94bd a853 82bc 6cf9 973d ee92 56be
000001a0: c584 403e 6ee7 55be affe 0fbe 1759 0cbd
000001b0: e748 2c3e 4509 ce3d 9fdc 153e 625e 58bc
000001c0: 7cad 38be 8618 01be c4eb 57be 47e3 d83d
000001d0: b65f 69be a067 b53d 59d1 1abe cc5d 1b3e
000001e0: 752d 69be f169 8a3e 5ab1 95be 358d b7bd
000001f0: fa29 09be f561 5abd 94a1 db3d 6db0 fcbd
00000200: 3046 db3d 355f 30bd bbe4 90be e457 a5bd
00000210: 5b8d 713e c06e 81be 4bb6 b2bd 12a6 343e
00000220: 3a47 94bc eb91 58bd bf9b e1bd f99d b4bd
00000230: d2a1 ddbc 0dee a33c 7237 1f3e e0d2 bf3d
00000240: 6e08 2a3e c244 4dbd b881 17bd dea4 2dbd
00000250: c957 b7bd 3c98 823d 9612 7bbc 0744 85be
00000260: dc17 503e 22f3 9dbd 058a 8b3d bb37 28be
00000270: 5d2c d5bd edfa 993e 2b3c 573d 960d 633c
00000280: 3de2 e63c 33c0 413e 009e 59bc 556d 123d
00000290: 20e5 3c3e baaa 263d 3b3c 97bc ea30 873e
000002a0: b154 463d 63b7 2f3d 21d0 e0bc 256b 59be
000002b0: ac54 643e 2371 b6bd aaf1 2c3e 5cf9 033d
000002c0: 6d0b b93d f462 cb3d 7e53 b6bd fb4a a63c
000002d0: 87f3 83be 402d b83d cdaa debd 33e4 21be
000002e0: cac8 d83d 419b 6ebe 702b 55bd 14dc 1ebe
000002f0: 30ce 08be 2a20 d9bc 2e69 963c 7a98 493d
00000300: 90f6 533d 1236 b6bd 7dfd bfbd 6d19 a23d
00000310: 9b93 7e3d 4b6b 773e 7243 ac3b 4fcd fe3b
00000320: da0f 0f3d 8a7d 8a3d 90d7 42be bc72 3c3d
00000330: 1671 413e f67e 333e 5724 06be 1bad a5bc
00000340: 8d3c d93c c7fb 3e3e 1e94 41be bb07 8abe
00000350: 769d 41be a28b e63b 9c31 253e 9bc8 623c
00000360: e37e 47bc 4661 013e 654e f7bd 52d3 be3d
00000370: cdcd 873d 7fca 8c3d d67e 76be 5ee7 e2bc
00000380: e85e 953e ff96 d2bd 21a4 e93d 4c12 5c3e
00000390: 2a04 11be 4002 533d a4b2 a4bd 5ac9 793d
000003a0: 2203 923e 7f4f 733e 1c4d 02be 7ea7 57be
000003b0: 6cba 6bbe 9dbb 213e 2beb 32bd a2c2 303e
000003c0: 8275 89be 50c6 fbbc c9c0 933c 234e d4bd
000003d0: d1cc f7bd e28e c33d 7fa5 be3d 78e8 5ebe
000003e0: 3f9e f23d 828d 90bd d3d6 3bbe 94db 6ebe
000003f0: 32b9 3d3e 8f4f fcbd 1d6d 52bd cba4 903c

bias_ih_l1 f4 [80]
-0.011456517 0.04287151 0.1354951 -0.101490915 0.2155735 0.15223771 0.1392414 0.23620474
-0.029740958 -0.09165195 -0.032040283 0.19192237 -0.08571614 -0.10264939 -0.11104366 0.05836747
0.14724888 0.276665 -0.07507916 -0.12788366 0.2076362 -0.029570641 0.14784326 0.12831506
0.26421946 0.11527591 -0.10176593 0.2029214 -0.043988176 0.16965197 0.09737368 -0.17095649
0.018286902 0.23375264 -0.07251094 0.13170491 0.1640627 -0.06694873 0.05746042 0.22749408
-0.02837605 0.07365322 -0.09841636 -0.14454895 0.25018725 -0.24230523 0.07734194 -0.17526779
-0.028951945 0.104995824 -0.032435745 -0.19213171 0.09457623 0.053613655 -0.17877232 -0.10787174
0.07151645 -0.009855282 0.13000372 0.15404089 0.0564375 0.22291115 -0.022738928 0.093081124
0.13965532 -0.009248444 0.06357214 -0.018774496 0.22332883 0.009786944 -0.08406611 0.04442004
0.20289904 0.12037138 0.14250109 0.08292729 0.17629743 0.26351413 0.04721237 0.0446117
00000000: 1db4 3bbc 099a 2f3d 3abf 0a3e 78da cfbd
00000010: 4dbf 5c3e 34e4 1b3e 4c95 0e3e a8df 713e
00000020: 4fa3 f3bc 04b4 bbbd ac3c 03bd 4c87 443e
00000030: f28b afbd d839 d2bd dc6a e3bd ba12 6f3d
00000040: 69c8 163e 09a7 8d3e 1ac3 99bd eff3 02be
00000050: 969e 543e 213e f2bc 3964 173e 0665 033e
00000060: c647 873e c715 ec3d a86a d0bd a1ca 4f3e
00000070: f22c 34bd 3fb9 2d3e da6b c73d 380f 2fbe
00000080: 6ace 953c da5c 6f3e 9e80 94bd a7dd 063e
00000090: 0d00 283e 6a1c 89bd 9e5b 6b3d 35f4 683e
000000a0: e474 e8bc 80d7 963d 848e c9bd a404 14be
000000b0: 8b18 803e dd1e 78be 7365 9e3d 6679 33be
000000c0: a12c edbc 0d08 d73d 58db 04bd 2dbe 44be
000000d0: 2fb1 c13d fe99 5b3d 1710 37be dceb dcbd
000000e0: 3777 923d 0c78 21bc b21f 053e e5bc 1d3e
000000f0: 022b 673d d242 643e fd46 babc 51a1 be3d
00000100: ce01 0f3e c986 17bc 1c32 823d f9cc 99bc
00000110: 50b0 643e 6b59 203c da2a acbd caf1 353d
00000120: c4c4 4f3e 4585 f63d ceeb 113e c8d5 a93d
00000130: 5087 343e 53eb 863e c261 413d c2ba 363d

bias_hh_l1 f4 [80]
0.29191986 0.09215997 -0.040841803 -0.15051246 0.13076964 -0.14531146 -0.02642553 -0.08641991
-0.19616851 0.03918682 0.097171456 0.24466619 0.02923017 0.12636852 0.07041433 0.08485021
0.23419008 0.069135435 -0.05639612 0.14641373 -0.07735947 0.18354577 0.24235956 -0.103044115
0.17545788 0.18796678 -0.17415021 0.2535385 -0.1390903 -0.057316553 0.0719107 -0.013029678
0.10430893 0.06106618 -0.016760586 -0.07231254 -0.05119492 0.20650446 -0.10582915 -0.08835311
0.039679885 0.18024959 -0.13038526 -0.19571376 0.25391868 -0.20111254 -0.049161885 -0.08954574
-0.22083402 -0.07933934 -0.07695923 -0.08300118 -0.22656149 0.17332521 0.22457556 -0.13941945
-0.19974788 0.21073063 0.02268459 -0.10568632 0.18301806 0.051831756 0.0403353 -0.037762582
-0.024106286 -0.17371547 0.12628119 0.11991599 -0.03679898 0.04857146 0.023235101 0.2836066
-0.0021911957 -0.09227676 0.2570691 -0.016057279 -0.058135875 -0.071227 0.10306085 0.23708643
00000000: 8576 953e 5ebe bc3d bc49 27bd f01f 1abe
00000010: 7ae8 053e 87cc 14be 5a7a d8bc ecfc b0bd
00000020: 66e0 48be 5c82 203d d401 c73d c689 7a3e
00000030: 1c74 ef3c c066 013e 6335 903d f2c5 ad3d
00000040: 86cf 6f3e e196 8d3d 9eff 66bd 7bed 153e
00000050: a46e 9ebd 6cf3 3b3e 1b2d 783e cb08 d3bd
00000060: 3bab 333e 5d7a 403e 6f54 32be cccf 813e
00000070: b06d 0ebe c3c4 6abd eb45 933d 6e7a 55bc
00000080: ec9f d53d 8820 7a3d 7f4d 89bc 9918 94bd
00000090: c4b1 51bd e875 533e f4bc d8bd 7af2 b4bd
000000a0: 6087 223d 5993 383e b783 05be 3069 48be
000000b0: a101 823e 72f0 4dbe f95d 49bd c263 b7bd
000000c0: 5022 62be aa7c a2bd cd9c 9dbd 86fc a9bd
000000d0: bcff 67be 2a7c 313e 23f7 653e f9c3 0ebe
000000e0: b58a 4cbe c5c9 573e 09d5 b93c 1272 d8bd
000000f0: 1669 3b3e 894d 543d a136 253d f0ac 1abd
00000100: 8c7a c5bc 78e2 31be db4f 013e 8496 f53d
00000110: 87ba 16bd def2 463d 8a57 be3c e234 913e
00000120: 2a9a 0fbb 99fb bcbd 909e 833e 8e8a 83bc
00000130: e21f 6ebd 76df 91bd 9111 d33d c9c6 723e

weight_ih_l2 f4 [80, 20]
0.007835028 0.086093955 0.11034558 -0.1315419 0.06455624 -0.3223848 0.21547382 0.08238937
-0.29875597 -0.003484422 -0.11306895 -0.17438877 0.080595545 -0.056035876 0.11324932 -0.22205192
0.029301645 0.03333929 0.21206072 0.016964355 0.10292597 -0.02377425 0.19776544 0.14971721
0.06694012 -0.034555905 -0.044232633 -0.21812913 -0.27121305 0.074453935 0.20054163 -0.20011252
0.18139578 -0.009132642 -0.15506694 0.041150093 -0.23019233 0.12681955 0.18353859 -0.16646652
0.20283914 0.04063953 -0.105006725 -0.24528123 0.13935214 -0.071475804 0.11330663 -0.0021025448
-0.0709328 0.21885878 -0.10995022 -0.22408976 0.07788066 -0.07100666 -0.0035329114 -0.3083004
-0.22045791 0.14237958 0.093820795 -0.18158083 0.05686345 -0.10616382 -0.09004423 0.051403046
0.105333716 -0.023513049 -0.104016885 0.03903649 -0.20396157 -0.13712318 0.06053382 0.17483811
0.106781594 0.030588761 -0.105755694 -0.108426735 -0.15759018 0.12588929 0.08601853 0.13861679
0.03751693 0.25447455 0.010152806 0.057753734 -0.15175796 -0.033779923 -0.11830852 0.051436912
-0.17673144 -0.18359458 0.04039659 0.08197074 0.25621185 -0.10769255 -0.13249141 -0.09843141
-0.14848128 -0.06256736 0.06112658 -0.12068456 -0.14688137 -0.07633039 -0.08123915 -0.14499232
0.17413412 -0.11268504 0.23896001 -0.065150104 -0.21036664 -0.09042497 -0.21142618 0.0066817827
-0.0017025167 -0.057456713 0.055834208 -0.01700331 -0.2754515 0.0867792 -0.13562533 -0.1623286
-0.20923069 0.08076796 -0.08643006 0.006184232 0.14406271 -0.19081743 -0.081031345 0.10927862
0.07929926 0.077107854 0.13355246 0.14287324 -0.18931054 0.011203682 -0.19717325 0.03755512
-0.11840989 0.023728225 -0.153146 -0.00663357 -0.08663762 -0.104295194 0.050261825 -0.055367507
0.05243048 0.10492025 0.05381207 0.13718316 0.094697386 0.04511632 -0.012976642 -0.104273506
0.13956718 0.16613634 0.18415765 -0.2764057 -0.0015936943 0.1182949 0.012593056 -0.07841095
0.12899736 -0.1215745 0.032912727 -0.13094762 0.31929135 0.07684842 0.07029002 -0.04478859
-0.013328839 0.015201955 -0.2321112 0.13258278 0.10212042 0.08754798 -0.15262915 -0.05508654
0.096315 0.04262527 -0.03342915 0.15095949 -0.16443676 -0.039269015 -0.08545181 -0.14884003
0.008257164 -0.047825933 0.08171577 0.10715485 -0.072799385 -0.07311828 0.16723448 -0.20321031
-0.1392756 -0.122259885 -0.17321642 0.05697824 0.15585384 -0.036568 -0.11499031 0.14271958
0.042119097 -0.11038431 0.06434465 0.047391053 0.09110216 0.04011278 0.15043147 -0.20987679
-0.017936887 -0.0167527 -0.28552297 0.02345906 -0.11086348 0.02162708 -0.23372722 -0.32801583
-0.015844593 0.2803592 0.12986217 -0.20968482 -0.123840645 0.25120193 0.07355587 -0.03379502
0.15517566 0.013008808 0.06520753 -0.24827513 -0.19793123 -0.12024577 -0.14030716 0.035164513
-0.038672347 0.0678131 -0.0140420105 -0.2465995 -0.25188032 0.123533554 0.019848922 0.054818645
-0.13794631 0.102320395 -0.21628447 -0.033995938 0.21753775 -0.26965967 -0.07581944 -0.1310609
-0.0325614 0.04297512 -0.08624908 0.028804217 -0.1247864 0.10032875 0.17246398 0.056934025
00000000: 7d5e 003c 0752 b03d ddfc e13d ebb2 06be
00000010: 1036 843d 9f0f a5be 2ba5 5c3e c2bb a83d
00000020: 8bf6 98be e75a 64bb b290 e7bd f892 32be
00000030: 470f a53d e085 65bd 42ef e73d 9461 63be
00000040: 010a f03c c88e 083d 7226 593e d5f8 8a3c
00000050: daca d23d 37c2 c2bc 0683 4a3e 784f 193e
00000060: e717 893d 7e8a 0dbd 472d 35bd 3e5d 5fbe
00000070: 70dc 8abe 4e7b 983d c95a 4d3e 4cea 4cbe
00000080: d1bf 393e 14a1 15bc dec9 1ebe 008d 283d
00000090: 8ab7 6bbe fcdc 013e 8af1 3b3e 3376 2abe
000000a0: 10b5 4f3e a375 263d c40d d7bd 012b 7bbe
000000b0: 54b2 0e3e e861 92bd 4e0d e83d d9ca 09bb
000000c0: 3745 91bd 841c 603e 952d e1bd c977 65be
000000d0: e57f 9f3d f16b 91bd 6b88 67bb 8dd9 9dbe
000000e0: b8bf 61be f4cb 113e 1e25 c03d 53f0 39be
000000f0: a6e9 683d 6b6c d9bd 1c69 b8bd 008c 523d
00000100: 34b9 d73d 709e c0bc ce06 d5bd bae4 1f3d
00000110: 4ddb 50be 056a 0cbe 50f2 773d c308 333e
00000120: 4fb0 da3d 4895 fa3c 7196 d8bd d60e debd
00000130: 525f 21be 1fe9 003e 7c2a b03d 8ff1 0d3e
00000140: 5aab 193d 7d4a 823e f457 263c 2e8f 6c3d
00000150: 7066 1bbe d15c 0abd bd4b f2bd 83af 523d
00000160: 16f9 34be 3800 3cbe e576 253d 46e0 a73d
00000170: 332e 833e e98d dcbd d4ab 07be 6896 c9bd
00000180: 7a0b 18be 5123 80bd dd5f 7a3d 7729 f7bd
00000190: 1268 16be 1c53 9cbd b660 a6bd de78 14be
000001a0: 3750 323e 6ac7 e6bd efb1 743e 6b6d 85bd
000001b0: 5a6a 57be ba30 b9bd 1b80 58be dbf2 da3b
000001c0: fb26 dfba bb57 6bbd 69b2 643d 874a 8bbc
000001d0: fb07 8dbe 4bb9 b13d 5ee1 0abe 7839 26be
000001e0: 9240 56be ac69 a53d 3e02 b1bd 19a5 ca3b
000001f0: 2d85 133e a565 43be c3f3 a5bd 78cd df3d
00000200: a767 a23d b9ea 9d3d fac1 083e 5d4d 123e
00000210: 9fda 41be a68f 373c c9e7 49be 66d3 193d
00000220: e280 f2bd b261 c23c 4ed2 1cbe 6b5e d9bb
00000230: 116f b1bd b898 d5bd 58df 4d3d 0ac9 62bd
00000240: 58c1 563d 6ee0 d63d 0c6a 5c3d be79 0c3e
00000250: b4f0 c13d e4cb 383d fb9b 54bc 598d d5bd
00000260: b3ea 0e3e a51f 2a3e d393 3c3e 0c85 8dbe
00000270: 82e3 d0ba 9944 f23d 1b53 4e3c ec95 a0bd
00000280: e217 043e 0dfc f8bd 7fcf 063d 2217 06be
00000290: 287a a33e b462 9d3d 37f4 8f3d 3e74 37bd
000002a0: 3461 5abc 9f11 793c 8fae 6dbe c8c3 073e
000002b0: 8324 d13d 5b4c b33d d14a 1cbe 6ca2 61bd
000002c0: cc40 c53d d697 2e3d 01ed 08bd 2095 1a3e
000002d0: 1c62 28be 8cd8 20bd 5c01 afbd 8569 18be
000002e0: 0e49 073c 20e5 43bd 995a a73d 0174 db3d
000002f0: d817 95bd 09bf 95bd 843f 2b3e 5d16 50be
00000300: 439e 0ebe 6463 fabd a55f 31be 0462 693d
00000310: 2698 1f3e 54c8 15bd 0a80 ebbd 1525 123e
00000320: 1385 2c3d 2b11 e2bd 21c7 833d 1f1d 423d
00000330: c593 ba3d 4c4d 243d b50a 1a3e f1e9 56be
00000340: 61f0 92bc f53c 89bc 1130 92be 372d c03c
00000350: 640c e3bd 462b b13c 3056 6fbe b1f1 a7be
00000360: 85cc 81bc 3e8b 8f3e 97fa 043e 9eb7 56be
00000370: 2aa0 fdbd 8a9d 803e 76a4 963d a66c 0abd
00000380: 5ee6 1e3e e522 553c 878b 853d d63b 7ebe
00000390: 7cae 4abe 6a43 f6bd aeac 0fbe aa08 103d
000003a0: e566 1ebd 98e1 8a3d 7610 66bc 9484 7cbe
000003b0: 75f6 80be 29ff fc3d 359a a23c 8489 603d
000003c0: cc41 0dbe 5b8d d13d ad79 5dbe 533f 0bbd
000003d0: 37c2 5e3e d510 8abe 3947 9bbd d434 06be
000003e0: 1a5f 05bd ae06 303d 5ca3 b0bd d2f6 eb3c
000003f0: 0390 ffbd 2979 cd3d 669a 303e a733 693d

weight_hh_l2 f4 [80, 20]
-0.046711802 0.08131702 0.059140634 -0.2114558 -0.17473374 0.017576413 0.017172465 -0.14694941
-0.2168379 -0.1896236 -0.08226373 -0.17051595 -0.18046285 0.03255509 -0.16334291 -0.027063621
-0.046145394 0.056941118 -0.18980719 0.1301027 -0.2038604 0.18609168 -0.056387443 0.09301293
-0.10461567 0.18666032 -0.20800936 0.106993936 0.08042927 0.1188794 -0.055238232 0.21911801
0.07376574 0.15804301 0.070359424 0.20116176 -0.123042725 0.066003464 -0.2720125 -0.041826032
0.16608843 -0.105179004 0.11150787 -0.18479024 -0.08646274 0.12004781 0.0662776 0.105791084
-0.24774441 -0.024944797 0.32737443 0.13034852 0.040095735 0.16000776 0.068642646 0.16680647
-0.061601587 -0.029832328 -0.18608524 -0.024617497 -0.17299098 -0.22985816 -0.15805905 0.21246274
0.030609876 0.27456394 -0.12603736 0.10777372 -0.18898971 0.15216441 0.12653698 -0.09825587
-0.15723456 0.038497522 0.025118215 -0.094591625 0.11178423 0.18202345 -0.07183446 0.16882387
-0.12798853 0.082598455 0.20229174 0.08052745 0.076670535 -0.036772702 0.015865326 0.18605421
-0.1132682 0.20329739 0.14401402 -0.078229375 0.0778408 0.25450158 0.14072903 0.20688906
0.111315966 0.046884336 0.063897215 -0.01617785 -0.1168831 -0.19768271 0.15374002 -0.036216605
-0.15537481 0.24953638 -0.16157795 0.015508596 -0.13959701 -0.017883549 0.09425412 0.14956442
0.05469962 0.020145241 0.15080388 -0.063842535 0.043817982 -0.054592796 -0.23335715 0.079459235
-0.049797658 0.054820377 -0.17385985 0.030508453 -0.14742152 -0.018973421 -0.105253436 -0.18598978
-0.15037864 0.0723416 0.0051857643 -0.18152134 0.119137056 0.14840949 0.01827826 0.081747815
0.059516408 0.18863496 -0.22202185 0.16203018 -0.20909728 -0.23792504 -0.028819274 -0.14969335
0.008266333 0.10493029 0.035920963 -0.14739136 -0.28097618 0.063512996 0.1978061 0.081811026
-0.036767963 0.17622188 -0.023976618 0.119974576 0.004781934 -0.24273255 -0.27492443 0.18315603
-0.058195196 -0.07635249 0.019515995 -0.015843771 -0.006020112 0.2971763 0.11276941 0.12197227
-0.21756434 -0.07659328 0.098067716 -0.118435934 -0.16862953 0.015389019 -0.19898143 -0.13361554
-0.17366004 -0.09953667 -0.029896393 0.10605091 0.24590585 0.004407602 0.10626741 0.19475977
-0.083113655 0.21657786 -0.13026442 -0.13024314 0.12964424 0.044668708 0.0744492 0.22160417
-0.07521083 0.13642769 0.11815135 -0.115096994 -0.12309803 -0.17676514 0.048272062 0.036900427
-0.14021854 -0.030732261 0.21359906 -0.04980461 0.026502984 0.18676749 0.113878004 -0.06582168
0.0042434013 0.13443317 0.09339542 -0.08971187 0.12525001 0.24614516 0.12635891 -0.115104094
0.1715912 -0.120291226 0.023840075 0.17123076 0.25084096 -0.12888275 0.20040749 -0.2234601
-0.010911277 0.084705256 -0.139963 -0.17160636 -0.12594064 0.23142412 -0.054996047 0.055822972
-0.11234491 0.08605902 -0.09223941 -0.07436877 0.064824075 0.06800587 0.06869001 0.029531049
0.18140587 -0.17807797 -0.082981646 0.15099205 -0.15911748 0.25975856 -0.18134205 0.1331829
-0.026888845 0.019817578 0.16911133 -0.13952614 0.07567149 -0.20253079 -0.1891212 0.060197026
00000000: e054 3fbd 8a89 a63d 733d 723d df87 58be
00000010: 67ed 32be 69fc 8f3c 45ad 8c3c e879 16be
00000020: c10a 5ebe b02c 42be e379 a8bd bc9b 2ebe
00000030: 41cb 38be 7c58 053d 5d43 27be 87b4 ddbc
00000040: f402 3dbd 173b 693d d15c 42be a439 053e
00000050: c8c0 50be d18e 3e3e 85f6 66bd 907d be3d
00000060: be40 d6bd e223 3f3e 6800 55be a31f db3d
00000070: 1ab8 a43d 0b77 f33d 7c41 62bd 7960 603e
00000080: 7e12 973d 07d6 213e 9a18 903d 59fd 4d3e
00000090: d3fd fbbd d32c 873d 3945 8bbe c651 2bbd
000000a0: 1613 2a3e 1768 d7bd 3d5e e43d a739 3dbe
000000b0: 6113 b1bd a0db f53d 8dbc 873d ffa8 d83d
000000c0: b6b0 7dbe 0859 ccbc 9f9d a73e 157a 053e
000000d0: 6d3b 243d 13d9 233e 8494 8c3d 51cf 2a3e
000000e0: f251 7cbd ed62 f4bc 218d 3ebe a2aa c9bc
000000f0: 8c24 31be f05f 6bbe 3bda 21be d58f 593e
00000100: 90c1 fa3c a593 8c3e f00f 01be 78b8 dc3d
00000110: 8586 41be fdd0 1b3e e992 013e 603a c9bd
00000120: 1902 21be 94af 1d3d b7c4 cd3c 41b9 c1bd
00000130: 21ef e43d 5b64 3a3e f21d 93bd 2ae0 2c3e
00000140: 6d0f 03be 6129 a93d 9125 4f3e 93eb a43d
00000150: 7105 9d3d f99e 16bd 00f8 813c ff84 3e3e
00000160: 28f9 e7bd 312d 503e 6978 133e b936 a0bd
00000170: ff6a 9f3d 084e 823e 451b 103e bada 533e
00000180: a0f9 e33d ca09 403d 8bdc 823d 6987 84bc
00000190: 6860 efbd 566d 4abe 066e 1d3e dd57 14bd
000001a0: 931a 1fbe 7786 7f3e b174 25be c417 7e3c
000001b0: 85f2 0ebe 8580 92bc 4e08 c13d 6a27 193e
000001c0: b50c 603d a207 a53c 556c 1a3e e0bf 82bd
000001d0: 7c7a 333d b29c 5fbd 2df5 6ebe 86bb a23d
000001e0: a1f8 4bbd 558b 603d 5108 32be ddec f93c
000001f0: abf5 16be 266e 9bbc 1d8f d7bd 1b74 3ebe
00000200: dcfc 19be d527 943d 58ed a93b bbe0 39be
00000210: 21fe f33d a8f8 173e 4abc 953c 666b a73d
00000220: 7ac7 733d 8629 413e b259 63be 3deb 253e
00000230: 991d 56be 9fa2 73be 6616 ecbc 3749 19be
00000240: 836f 073c b1e5 d63d dc21 133d c3ed 16be
00000250: 1cdc 8fbe 1a13 823d af8d 4a3e 8a8c a73d
00000260: 019a 16bd 8273 343e 9d6a c4bc 3bb5 f53d
00000270: c5b1 9c3b e28e 78be e5c2 8cbe 418d 3b3e
00000280: 165e 6ebd b25e 9cbd 02e0 9f3c ccca 81bc
00000290: 5c44 c5bb 7e27 983e a6f3 e63d 99cc f93d
000002a0: 30c9 5ebe f0dc 9cbd bad7 c83d 8a8e f2bd
000002b0: 38ad 2cbe 3922 7c3c cac1 4bbe 83d2 08be
000002c0: f0d3 31be e2d9 cbbd 48e9 f4bc 3831 d93d
000002d0: bece 7b3e a56d 903b baa2 d93d 1b6f 473e
000002e0: 7e37 aabd 96c6 5d3e 0964 05be 755e 05be
000002f0: 76c1 043e 89f6 363d d278 983d 34ec 623e
00000300: 2308 9abd b3b3 0b3e 56f9 f13d f9b7 ebbd
00000310: d21a fcbd ec01 35be edb8 453d e724 173d
00000320: 7395 0fbe 39c2 fbbc b6b9 5a3e ebff 4bbd
00000330: c91c d93c fa3f 3f3e df38 e93d 84cd 86bd
00000340: 3b0c 8b3b d9a8 093e 1946 bf3d dbba b7bd
00000350: 8a41 003e 7a0d 7c3e 3b64 013e b2bb ebbd
00000360: 9bb5 2f3e 3f5b f6bd 434c c33c 1e57 2f3e
00000370: 3a6e 803e d7f9 03be 9f37 4d3e b9d2 64be
00000380: 36c5 32bc f379 ad3d 7652 0fbe 94b9 2fbe
00000390: 95f6 00be 72fa 6c3e 8943 61bd a1a6 643d
000003a0: 1715 e6bd b63f b03d 04e8 bcbd a74e 98bd
000003b0: 7cc2 843d a946 8b3d 59ad 8c3d 19eb f13c
000003c0: 76c2 393e 125a 36be 48f2 a9bd a99d 1a3e
000003d0: b1ef 22be 13ff 843e bbb1 39be 1961 083e
000003e0: ff45 dcbc 7958 a23c 852b 2d3e f1df 0ebe
000003f0: a7f9 9a3d 3b64 4fbe fda8 41be 2891 763d

bias_ih_l2 f4 [80]
0.05084423 0.09000992 0.2721879 0.14038676 0.06809404 0.24393967 0.08198405 0.12997693
0.28295872 0.15531443 0.281737 0.13246681 0.07904157 0.15116458 0.17705852 0.069027364
-0.000319292 0.060091708 0.03488798 0.23405984 0.17129767 0.00010540505 0.13019119 -0.0942163
-0.18653566 0.23993458 0.011659836 -0.060267694 0.29983798 0.09442144 0.10468703 0.04611169
0.2141871 -0.057490412 0.047011904 0.02090613 0.09060389 -0.027275437 0.26216835 0.14459279
0.14588861 -0.24680014 -0.076480344 0.015308148 0.06739735 0.13663743 -0.13176122 0.006270491
-0.20541821 -0.00026510254 0.124498785 0.050239697 -0.099465266 0.063722484 0.1353806 -0.10117655
0.004649282 -0.033601202 -0.28437787 -0.1815565 0.27513635 0.229669 0.30993873 0.30410555
0.16217244 -0.014701076 0.27187002 0.028217401 -0.025090603 0.10653912 0.23631027 0.13194333
0.3150424 -0.030558664 0.3135329 0.04995747 0.27833536 0.22676334 0.12078357 0.08919029
00000000: 0a42 503d 1f57 b83d 365c 8b3e 8cc1 0f3e
00000010: e374 8b3d 52cb 793e 41e7 a73d ac18 053e
00000020: f7df 903e bf0a 1f3e d53f 903e 61a5 073e
00000030: 8ce0 a13d e3ca 1a3e d44e 353e 385e 8d3d
00000040: a666 a7b9 b922 763d b3e6 0e3d 62ad 6f3e
00000050: a868 2f3e e80c dd38 d750 053e 7af4 c0bd
00000060: 3403 3fbe 69b1 753e e608 3f3c 42db 76bd
00000070: 5d84 993e 0760 c13d 2766 d63d 9ddf 3c3d
00000080: dd53 5b3e 117b 6bbd 8e8f 403d 5543 ab3c
00000090: 888e b93d bd70 dfbc ee3a 863e 2210 143e
000000a0: d363 153e 2db9 7cbe baa1 9cbd 07cf 7a3c
000000b0: 9f07 8a3d afea 0b3e 6aec 06be b178 cd3b
000000c0: 2759 52be 76fd 8ab9 38f9 fe3d 24c8 4d3d
000000d0: 72b4 cbbd ef80 823d 36a1 0a3e a735 cfbd
000000e0: 0159 983b 6aa1 09bd fa99 91be f2e9 39be
000000f0: acde 8c3e 5a2e 6b3e 4ab0 9e3e b9b3 9b3e
00000100: 8810 263e c8dc 70bc 8c32 8b3e 2e28 e73c
00000110: cf8a cdbc 2f31 da3d 52fb 713e 271c 073e
00000120: 3d4d a13e 2a56 fabc 6287 a03e 34a0 4c3d
00000130: f981 8e3e a634 683e 605d f73d 66a9 b63d

bias_hh_l2 f4 [80]
-0.05499911 0.1262787 0.20566995 0.31027156 -0.037016828 0.12035829 0.08889504 0.16124688
0.18950534 0.25263634 0.13871287 0.21961199 0.20611365 -0.08708672 0.3034175 -0.089162454
0.2704102 0.0010864071 -0.0512003 0.1568591 -0.09205665 0.051722012 -0.092972495 -0.11106077
0.18537606 -0.073785126 0.020496836 -0.040012233 -0.08422452 0.18694685 0.1380453 -0.18666758
0.21048471 -0.11649397 -0.15351756 0.017896045 0.18822487 0.033092804 0.023241404 0.17848437
0.031063452 -0.1279582 0.050375868 -0.03160818 -0.16747154 0.26311105 0.12228471 -0.08419016
-0.21907698 0.038241856 0.18238036 0.12814176 0.08065391 0.003346723 -0.010955708 0.14080577
-0.114802845 -0.21762127 -0.23466225 0.19118972 0.06862919 -0.055729914 0.2687226 0.26014638
0.23090355 0.20267098 0.30670652 0.30974448 0.0057950276 0.16154255 0.24778396 -0.08869898
0.14702563 -0.038358446 0.2297713 0.17083378 0.18440837 0.1093158 0.20515092 -0.010722511
00000000: bf46 61bd 344f 013e 259b 523e eadb 9e3e
00000010: f59e 17bd 687e f63d 9a0e b63d e71d 253e
00000020: b00d 423e 8d59 813e bf0a 0e3e f7e1 603e
00000030: 750f 533e 865a b2bd 8a59 9b3e ce9a b6bd
00000040: 3573 8a3e c665 8e3a 68b7 51bd ac9f 203e
00000050: 3288 bcbd 76da 533d 5d68 bebd d473 e3bd
00000060: 39d3 3d3e a81c 97bd fbe8 a73c dee3 23bd
00000070: e87d acbd ff6e 3f3e bf5b 0d3e c925 3fbe
00000080: 4e89 573e 6494 eebd b533 1dbe ba9a 923c
00000090: 05be 403e 528c 073d c264 be3c 9bc4 363e
000000a0: c878 fe3c 7907 03be ed56 4e3d 9477 01bd
000000b0: a97d 2bbe 7eb6 863e 6870 fa3d e46b acbd
000000c0: b755 60be 7ea3 1c3d ebc1 3a3e 9837 033e
000000d0: e12d a53d b254 5b3b 927f 33bc 632f 103e
000000e0: c11d ebbd 1cd8 5ebe 4d4b 70be 3dc7 433e
000000f0: 768d 8c3d 0d45 64bd 0296 893e e831 853e
00000100: fb71 6c3e fb88 4f3e a308 9d3e d496 9e3e
00000110: 37e4 bd3b 696b 253e 14bb 7d3e d0a7 b5bd
00000120: e38d 163e bf1d 1dbd 2b49 6b3e 0def 2e3e
00000130: 8cd5 3c3e f6e0 df3d 1513 523e 79ad 2fbc
