main_project/lstm/model/model_mk5.pt (torch, 49605 bytes, 32 tensors)

weight_ih_l0 f4 [40, 22]
-0.14536275 -0.093871936 -0.25090542 0.03559724 -0.067786045 -0.35419846 0.18199697 -0.2715612
0.13925721 -0.16522469 -0.14440274 0.042402565 0.2755708 -0.2492629 0.15595506 0.12613992
0.22432272 0.24977693 -0.106854305 0.13387685 -0.028729478 0.24473654 -0.19178638 0.016900446
-0.042182636 0.08428991 0.29337022 -0.18769966 -0.24881944 -0.13729975 -0.19353564 0.14170943
0.16491248 0.32413828 0.21986896 0.05396813 -0.16319323 -0.10566686 0.3209461 -0.16591737
-0.26704448 0.24579167 -0.3209719 0.25541914 0.10969954 0.07965003 -0.13644229 0.21742529
-0.14384413 0.16777655 -0.16822171 0.051265113 -0.21573967 0.25228062 -0.27801546 0.26514348
-0.25791264 -0.07947238 -0.20363393 0.12030623 -0.25463846 -0.26610303 -0.1756026 0.0845604
0.19687995 0.28308794 0.15028106 0.15732573 -0.3019402 -0.303315 0.28103364 -0.26086876
0.0027122335 -0.068186164 0.28150457 0.1418681 0.20884444 -0.042656727 0.13295038 -0.29003313
-0.098432444 -0.06908784 0.21961656 0.22461577 -0.21100065 -0.2164267 0.19605997 -0.14118291
-0.24434568 0.20167802 -0.025775492 -0.20775127 0.32883325 -0.36972365 -0.25342497 -0.1486633
-0.011785456 -0.317973 -0.31722075 -0.13900016 -0.12671138 -0.16126366 -0.07041651 -0.23904003
-0.0545051 -0.31502116 -0.118567206 -0.051121946 -0.19433028 0.165342 -0.17715676 0.23240319
-0.20431812 -0.15553425 -0.08906853 0.13536492 -0.20114602 -0.016823987 0.19382165 -0.04543724
-0.16731837 -0.20075247 -0.26817003 -0.07840658 -0.020654328 0.16124624 0.010360628 -0.16972746
-0.23630418 0.059709802 0.17770207 0.32512775 0.20611177 -0.115040444 -0.085668795 0.051612172
0.17634705 0.0887196 -0.26642945 -0.085812785 0.036426634 0.27581096 -0.23581886 0.21379165
-0.17199098 0.2313771 -0.032554563 0.2855778 0.23968913 -0.25476724 -0.16574147 0.24561168
0.064428195 -0.0644544 0.00950346 -0.22177814 -0.3668315 -0.23668005 0.24854206 -0.261914
0.012565466 0.0066547473 -0.033965945 -0.038374864 0.055517137 -0.023357002 0.060522083 0.04247983
0.04909769 -0.022241931 -0.041422337 0.23901197 0.13721456 -0.25315306 0.24816063 0.10146244
-0.25458327 0.20964512 -0.31501043 0.1452919 -0.011666771 -0.3173936 -0.113391094 0.3150322
-0.1625338 0.015102299 -0.0019185389 -0.15158273 0.055893846 0.16562723 -0.0075222217 -0.16419128
0.004577402 -0.18146743 0.27989262 0.1810812 0.06655056 0.23083185 -0.08099143 0.004285458
-0.1424756 -0.11435277 -0.1174798 0.14371748 -0.13582508 -0.1658146 0.03806706 -0.12644936
-0.21949956 0.28987655 -0.25961784 -0.20352024 0.05221244 0.22437331 0.2891219 -0.31139883
-0.07991291 -0.19123124 -0.20453246 0.11864239 -0.14399755 0.124247655 -0.07827483 -0.17409268
-0.22199686 0.002343198 0.041637454 0.16174288 -0.14103669 -0.25336358 0.18165259 -0.13347232
0.29144913 0.14690217 0.13686617 -0.1457094 0.06358079 -0.06215741 -0.16676296 -0.3383171
-0.27078876 0.2505114 0.23084591 0.008037612 0.23718737 0.25139496 0.38439032 0.19054298
-0.17788409 0.3334722 -0.04687666 -0.10082865 -0.1515728 0.21864201 0.031965636 0.08529112
00000000: f9d9 14be ee3f c0bd ad76 80be 69ce 113d
00000010: 69d3 8abd 8059 b5be 6a5d 3a3e 120a 8bbe
00000020: 7199 0e3e a930 29be 50de 13be 50ae 2d3d
00000030: 9e17 8d3e c63e 7fbe afb2 1f3e d32a 013e
00000040: dbb4 653e 86c5 7f3e 6ed6 dabd 0317 093e
00000050: 155a ebbc 379c 7a3e a663 44be ce72 8a3c
00000060: b3c7 2cbd 30a0 ac3d 9f34 963e 5734 40be
00000070: 86ca 7ebe 4e98 0cbe 352e 46be 471c 113e
00000080: d1de 283e 74f5 a53e 5425 613e b00d 5d3d
00000090: 201c 27be de67 d8bd 0c53 a43e 3ee6 29be
000000a0: 0eba 88be d0b0 7b3e 6e56 a4be 4cc6 823e
000000b0: 27aa e03d 8e1f a33d 87b7 0bbe bca4 5e3e
000000c0: e04b 13be 9ecd 2b3e 5042 2cbe 5efb 513d
000000d0: dcea 5cbe ed2a 813e 0b58 8ebe e3c0 873e
000000e0: 200d 84be 6ac2 a2bd 6a85 50be 1d63 f63d
000000f0: f95f 82be a83e 88be 2bd1 33be 012e ad3d
00000100: e69a 493e e7f0 903e 47e3 193e ff19 213e
00000110: e897 9abe 1b4c 9bbe a4e3 8f3e 9790 85be
00000120: babf 313b 30a5 8bbd 5e21 903e df45 113e
00000130: 51db 553e d2b8 2ebd 2524 083e 397f 94be
00000140: f396 c9bd ed7d 8dbd 2ae3 603e ad01 663e
00000150: 8e10 58be f69e 5dbe f2c3 483e 4192 10be
00000160: c135 7abe af84 4e3e 2027 d3bc c0bc 54be
00000170: d55c a83e 6b4c bdbe ebc0 81be 313b 18be
00000180: c917 41bc 5bcd a2be c26a a2be 0f56 0ebe
00000190: a1c0 01be 4d22 25be 8836 90bd e9c6 74be
000001a0: bd40 5fbd 744a a1be 5dd3 f2bd 3f65 51bd
000001b0: 84fe 46be 6a4f 293e 9568 35be 1afb 6d3e
000001c0: c538 51be 5f44 1fbe 9069 b6bd 1a9d 0a3e
000001d0: 39f9 4dbe 75d2 89bc 2f79 463e 661c 3abd
000001e0: 8255 2bbe 0e92 4dbe 954d 89be a193 a0bd
000001f0: 4433 a9bc bc1d 253e a0bf 293c 09cd 2dbe
00000200: b9f9 71be 4492 743d 88f7 353e 2577 a63e
00000210: f70e 533e 539a ebbd 1f73 afbd 4967 533d
00000220: 5294 343e 9fb2 b53d 7169 88be 9dbe afbd
00000230: 1834 153d 1837 8d3e 807a 71be 33ec 5a3e
00000240: 671e 30be 1eee 6c3e ef57 05bd 4137 923e
00000250: 1171 753e da70 82be 22b8 29be a181 7b3e
00000260: eef2 833d ab00 84bd 66b4 1b3c cf19 63be
00000270: 57d1 bbbe 415c 72be cf81 7e3e 9819 86be
00000280: 62df 4d3c 1110 da3b e01f 0bbd f62e 1dbd
00000290: f065 633d 2f57 bfbc 01e6 773d 55ff 2d3d
000002a0: a91a 493d b634 b6bc 78aa 29bd 8ebf 743e
000002b0: f981 0c3e 479d 81be d21d 7e3e 8acb cf3d
000002c0: bd58 82be 36ad 563e 0c49 a1be 66c7 143e
000002d0: fc25 3fbc 6a81 a2be 9739 e8bd e74b a13e
000002e0: 436f 26be a26f 773c 7c77 fbba 8138 1bbe
000002f0: f2f0 643d 2f9a 293e f87c f6bb c221 28be
00000300: 08fe 953b 99d2 39be 164e 8f3e 5a6d 393e
00000310: a94b 883d 2f5f 6c3e d6de a5bd 076d 8c3b
00000320: 20e5 11be c931 eabd 4099 f0bd ad2a 133e
00000330: bb15 0bbe 4dcb 29be 35ec 1b3d f17b 01be
00000340: 7ec4 60be b36a 943e a1ec 84be 9c67 50be
00000350: b6dc 553d 1ec2 653e c907 943e ab6f 9fbe
00000360: 61a9 a3bd 1fd2 43be f570 51be c8fa f23d
00000370: 1874 13be 8e75 fe3d 8e4e a0bd 5a45 32be
00000380: 2553 63be 5790 193b 098c 2a3d ed9f 253e
00000390: ec6b 10be dfb8 81be 2303 3a3e f8ac 08be
000003a0: d238 953e 866d 163e a526 0c3e d834 15be
000003b0: a536 823d c598 7ebd e9c3 2abe e637 adbe
000003c0: d3a4 8abe 0843 803e df62 6c3e 30b0 033c
000003d0: 3fe1 723e d7b6 803e cfce c43e b31d 433e
000003e0: 3f27 36be debc aa3e be01 40bd 407f cebd
000003f0: e635 1bbe b1e3 5f3e 66ee 023d 1cad ae3d

weight_hh_l0 f4 [40, 10]
0.11588373 -0.1808254 -0.36278427 0.08555372 0.17186968 0.2011365 0.14140148 0.28665802
-0.17652182 0.22342172 0.06266148 -0.15265073 0.12378718 0.38144982 0.062430616 -0.33940747
-0.13854769 -0.35041893 0.29485068 0.023858445 -0.003345741 0.17690362 0.32933202 0.019053953
0.12788169 0.16439311 -0.01607093 0.29012793 0.25229773 0.2119046 -0.12739949 -0.21219195
-0.04999561 -0.046100482 0.34814578 0.072141804 0.044747166 0.31076667 0.0447343 -0.028261375
0.07828496 0.36417207 -0.08263791 0.28836226 0.21252754 -0.1419905 0.015395491 -0.038277388
0.07402558 0.050956603 -0.18695356 0.23277526 0.2908519 0.038086686 0.023232555 -0.110796005
0.042814977 -0.030353213 0.039243896 0.29052696 0.04946212 0.30853623 0.076987654 0.2242012
0.087947 -0.35144898 0.18020041 0.1711676 0.14149255 -0.009843331 0.14208464 0.17869511
0.27219102 0.32368934 0.2293667 -0.14895806 -0.0051169754 -0.115285985 0.278534 0.35759267
-0.020717354 0.019947661 0.023791451 -0.19631685 0.22113624 0.273679 -0.02501678 0.12619156
-0.31376368 -0.16623703 0.062473405 0.17531477 0.11649927 0.35859948 -0.27033955 0.27939242
-0.11691899 -0.06326365 0.102347806 0.35257125 0.24403754 -0.3409026 -0.05511101 -0.28788298
-0.13486305 0.05611082 0.21411926 0.02744149 -0.36263472 -0.023985503 -0.089076996 -0.020854916
-0.23285387 0.39472616 0.2972807 0.043504357 -0.0614194 0.24856889 0.0737545 0.30882415
0.043375757 -0.07274626 -0.19508176 -0.061521836 -0.08978084 -0.12636687 0.15639673 0.3100043
0.06580893 0.29334906 0.16564693 0.20819667 -0.18527022 0.055391707 0.13302997 0.3304237
-0.08288452 0.3805933 -0.097001 0.106000505 -0.048950177 0.22717787 -0.11403326 0.012523241
0.2802069 0.2695709 -0.15734646 0.2828011 -0.12758721 -0.11090894 -0.15144642 0.28306305
0.12023088 0.20646179 0.20166321 -0.02338341 0.04753994 0.22256355 -0.090712056 -0.12919655
0.016122071 0.3195708 0.012292793 -0.08024576 -0.016743857 0.122173324 -0.07714866 -0.0013668075
0.2236 0.10381362 0.24055459 -0.015045695 0.09256838 0.09679944 0.05366643 -0.06031862
-0.18989268 0.061579954 -0.07644241 0.35107005 -0.029801825 0.10899798 -0.15768306 0.15287009
0.16440146 -0.058369014 0.08856114 0.34150672 -0.16209483 -0.040055018 -0.33343098 -0.18501973
-0.094769165 0.21291386 0.36055687 0.29537103 0.29088363 0.0051275003 0.1048272 -0.21393162
0.08184587 0.23346213 -0.054587908 0.06864421 -0.27794626 -0.006585138 0.27620173 -0.2730247
-0.20359786 -0.25039876 -0.15491854 -0.09666234 0.20536554 0.25981387 0.16853203 -0.23665915
0.300925 -0.29217076 0.13185264 0.17937803 0.2727334 -0.089002885 -0.03512149 0.30865914
0.14990209 0.08580204 0.30044702 0.03490098 -0.24506369 0.14715002 0.22870079 -0.2945261
0.08501963 -0.015477615 -0.043441854 0.04830954 0.22324125 -0.18573779 -0.24501999 0.097313225
0.04364807 -0.1981713 0.06542444 -0.00550064 -0.25626537 0.38530993 -0.030950466 0.21568945
0.3672635 0.11659863 -0.13056873 -0.10591397 0.106269635 -0.27866563 0.12335974 0.2871648
00000000: 7354 ed3d 4b2a 39be dcbe b9be ca36 af3d
00000010: 9bfe 2f3e baf6 4d3e 8dcb 103e d7c4 923e
00000020: 23c2 34be aac8 643e a954 803d 7950 1cbe
00000030: 2284 fd3d 644d c33e 3fb7 7f3d d1c6 adbe
00000040: 72df 0dbe 1c6a b3be abf6 963e c972 c33c
00000050: 3844 5bbb 3926 353e 359e a83e 0917 9c3c
00000060: 6bf3 023e ab56 283e 2fa7 83bc a68b 943e
00000070: 2b2d 813e 85fd 583e 0375 02be d948 59be
00000080: 32c8 4cbd dcd3 3cbd 2a40 b23e 15bf 933d
00000090: ce48 373d cf1c 9f3e 503b 373d 6684 e7bc
000000a0: dd53 a03d c374 ba3e 113e a9bd 38a4 933e
000000b0: d2a0 593e f565 11be 5f3d 7c3c c0c8 1cbd
000000c0: b99a 973d dfb7 503d c170 3fbe a35c 6e3e
000000d0: 8aea 943e c900 1c3d 3352 be3c 04e9 e2bd
000000e0: c25e 2f3d 4da7 f8bc 35be 203d f3bf 943e
000000f0: cb98 4a3d 76f8 9d3e b4ab 9d3d 0095 653e
00000100: 8f1d b43d 1ff1 b3be 7586 383e 8f46 2f3e
00000110: 6ce3 103e ec45 21bc a37e 113e dafb 363e
00000120: 9f5c 8b3e 9cba a53e 1bdf 6a3e 7688 18be
00000130: 4dac a7bb 0f1b ecbd 029c 8e3e 6316 b73e
00000140: 71b7 a9bc 4769 a33c 4ae6 c23c 4907 49be
00000150: 8a71 623e a71f 8c3e fdef ccbc 5c38 013e
00000160: a2a5 a0be 0a3a 2abe 1de4 7f3d b785 333e
00000170: 2b97 ee3d 5a9a b73e f269 8abe 860c 8f3e
00000180: 3973 efbd 5f90 81bd ba9b d13d 3884 b43e
00000190: fae4 793e c98a aebe 15bc 61bd 6665 93be
000001a0: 8a19 0abe 76d4 653d 1442 5b3e facc e03c
000001b0: 42ab b9be 3f7d c4bc 006e b6bd eed7 aabc
000001c0: 3f71 6ebe 8c19 ca3e 2d35 983e a031 323d
000001d0: e992 7bbd d888 7e3e 990c 973d 331e 9e3e
000001e0: c7aa 313d fefb 94bd 83c3 47be 52fe 7bbd
000001f0: 04df b7bd 5166 01be 7726 203e e2b8 9e3e
00000200: d5c6 863d d931 963e 599f 293e 8231 553e
00000210: 7ab7 3dbe 6ae2 623d 0239 083e 4c2d a93e
00000220: 5cbf a9bd 20dd c23e 76a8 c6bd cb16 d93d
00000230: fb7f 48bd 51a1 683e 458a e9bd 482e 4d3c
00000240: 4777 8f3e 3205 8a3e 6e1f 21be 4ecb 903e
00000250: 39a6 02be 3a24 e3bd c514 1bbe a4ed 903e
00000260: 9c3b f63d b86a 533e cd80 4e3e 918e bfbc
00000270: 3db9 423d b3e7 633e 3ec7 b9bd 1a4c 04be
00000280: 6f12 843c c99e a33e b667 493c e457 a4bd
00000290: 6a2a 89bc 0236 fa3d 1e00 9ebd 7326 b3ba
000002a0: 66f7 643e 3c9c d43d f153 763e 3882 76bc
000002b0: 7e94 bd3d c93e c63d 55d1 5b3d a810 77bd
000002c0: 3a73 42be 433b 7c3d d78d 9cbd 74bf b33e
000002d0: f522 f4bc 553a df3d ab77 21be fa89 1c3e
000002e0: db58 283e 5914 6fbd 8b5f b53d f8d9 ae3e
000002f0: 30fc 25be bb10 24bd 77b7 aabe d075 3dbe
00000300: 5616 c2bd 1706 5a3e e99a b83e df3a 973e
00000310: b3ee 943e 9704 a83b a5af d63d e410 5bbe
00000320: cf9e a73d b210 6f3e 9297 5fbd 5695 8c3d
00000330: f94e 8ebe 24c8 d7bb 506a 8d3e e5c9 8bbe
00000340: f57b 50be 4434 80be f7a2 1ebe e8f6 c5bd
00000350: 584b 523e 5306 853e a993 2c3e c756 72be
00000360: d712 9a3e 6897 95be 6104 073e e0ae 373e
00000370: b6a3 8b3e 2547 b6bd 8ddb 0fbd 9208 9e3e
00000380: ef7f 193e fbb8 af3d 31d4 993e 54f4 0e3d
00000390: faf1 7abe 7fae 163e 8a30 6a3e 20cc 96be
000003a0: c61e ae3d d395 7dbc 16f0 31bd 39e0 453d
000003b0: 5b99 643e 0c32 3ebe 85e6 7abe 284c c73d
000003c0: 52c8 323d 6bed 4abe 40fd 853d b63e b4bb
000003d0: 3735 83be 5847 c53e d58b fdbc b2dd 5c3e
000003e0: f609 bc3e 43cb ee3d cfb3 05be 6ce9 d8bd
000003f0: e5a3 d93d 43ad 8ebe 08a4 fc3d 4407 933e

bias_ih_l0 f4 [40]
-0.3295513 0.05424591 0.092417076 -0.041063085 0.2194666 -0.13944973 -0.22192554 -0.16065426
0.34168637 0.12692438 0.11878084 0.0016102726 0.074776664 -0.0019665018 0.13116401 0.22809562
-0.015276619 -0.2499907 0.10013332 0.033034623 0.31486273 -0.11946141 -0.05000772 0.2770156
-0.0957945 -0.30303705 0.12097237 0.11966069 -0.27301568 -0.21372333 0.12239903 0.15488124
-0.078741744 0.18757924 -0.051271215 0.048251346 -0.17286824 -0.15147072 0.32544273 0.047882523
00000000: f3ba a8be f630 5e3d 2a45 bd3d c431 28bd
00000010: dabb 603e e9cb 0ebe 7340 63be 8d82 24be
00000020: 84f1 ae3e 77f8 013e 5e43 f33d c80f d33a
00000030: 8224 993d 6de0 00bb dc4f 063e e691 693e
00000040: c94a 7abc 90fd 7fbe b312 cd3d 504f 073d
00000050: b035 a13e 2fa8 f4bd e5d4 4cbd fdd4 8d3e
00000060: e82f c4bd ac27 9bbe 5dc0 f73d aa10 f53d
00000070: b6c8 8bbe 4ada 5abe 58ac fa3d 3099 1e3e
00000080: 5a43 a1bd c614 403e c401 52bd 34a3 453d
00000090: 5f04 31be 241b 1bbe 6ea0 a63e 7720 443d

bias_hh_l0 f4 [40]
0.2266497 -0.16353457 -0.20420088 0.24086076 -0.0048069293 0.2689511 -0.24096227 -0.19960684
-0.17117102 -0.118880235 0.24659137 -0.005871343 0.14267807 0.012384139 -0.13398246 -0.08586888
-0.23389257 0.3510553 0.22538868 0.3232547 0.19756192 0.30446562 -0.004591188 -0.048385203
-0.10109626 -0.16566877 -0.09211126 0.11843767 0.20904462 -0.09561667 -0.38266185 -0.21008559
0.08489694 0.12686713 0.08119579 0.3108228 0.099658065 0.20388247 -0.22286269 -0.0026326107
00000000: dc16 683e 9b75 27be 091a 51be 34a4 763e
00000010: 7283 9dbb f5b3 893e d0be 76be bc65 4cbe
00000020: 7547 2fbe 7b77 f3bd 7382 7c3e 6564 c0bb
00000030: 331a 123e d8e6 4a3c b332 09be 06dc afbd
00000040: 8981 6fbe 85bd b33e 4acc 663e a481 a53e
00000050: ac4d 4a3e ebe2 9b3e ad71 96bb 902f 46bd
00000060: 8e0b cfbd 13a5 29be d4a4 bcbd 738f f23d
00000070: cb0f 563e acd2 c3bd 41ec c3be ad20 57be
00000080: 72de ad3d 75e9 013e fa49 a63d 2b24 9f3e
00000090: 8719 cc3d 91c6 503e 1e36 64be e187 2cbb

weight_ih_l0 f4 [40, 22]
0.09519662 0.102615096 0.018217316 0.30466294 -0.20718981 -0.2716922 0.055656318 0.13956235
-0.25875044 -0.16016454 0.23259217 0.10820595 -0.07802981 -0.32383043 -0.29098776 -0.13977213
-0.15973377 -0.036516447 0.1830023 0.041433007 0.27316847 0.19443114 -0.29623738 -0.13681598
0.046947647 -0.13484828 0.21584177 0.10476246 0.15508051 -0.025701275 0.034805465 -0.22245377
-0.11839389 0.12900941 0.022723164 0.036074992 0.124699 -0.14166668 0.07222998 0.2381532
-0.32290256 0.10821288 0.31615162 0.19495682 0.08002808 0.2565466 0.07605908 -0.0144105675
-0.047136605 -0.094359964 -0.2153239 -0.1952359 -0.31824544 -0.296437 -0.10114016 -0.18731618
-0.10547517 -0.31793842 0.22391896 -0.01501275 0.17347835 0.22786076 -0.0422741 0.0945906
0.10945251 0.29054943 0.2895299 -0.14509353 -0.30025232 -0.045126412 0.16326623 0.112747185
0.124813706 -0.20490593 0.1274408 -0.042257745 0.03441916 -0.10661196 -0.15169434 -0.085936286
0.2906471 0.2602369 -0.23779203 0.20526455 0.35874963 0.22837755 -0.300452 -0.12418154
-0.25089943 0.14240743 0.13800858 0.11773749 0.27006087 -0.09432759 -0.1614038 0.18746269
-0.0020514864 -0.027093505 -0.29109272 0.26408783 -0.14937527 0.36042222 0.22940482 -0.21442284
0.17346784 -0.13197735 -0.2171321 0.2566185 -0.05083385 0.15491813 -0.2954296 0.20919335
-0.1288183 -0.18228309 -0.14794336 0.17954604 0.19597138 -0.12068875 -0.07515931 -0.19905186
-0.3377777 -0.045544535 -0.31210074 0.13025612 -0.0948045 -0.08807986 0.18312241 0.32379225
-0.18111926 0.32817623 0.18505116 0.079755075 -0.14957361 0.27557904 -0.11301594 0.17010757
0.07999399 -0.24230671 -0.2225488 0.09290325 0.062221963 0.18127303 -0.28644547 0.17154966
-0.18570225 -0.0016173087 -0.115824305 0.35583642 0.052219894 0.070541844 -0.3298873 0.26518565
-0.17501444 -0.079635024 -0.03322759 -0.19256902 0.18523197 0.24863634 -0.2871349 -0.047521897
0.13201995 0.0926872 0.2815532 0.027641471 0.060088646 -0.057865776 -0.20525964 -0.015350987
0.26331523 -0.16183087 0.12539832 -0.23693842 0.025589338 0.17211884 -0.26140788 0.043505862
-0.25554994 0.20184124 -0.28554437 0.27146107 0.20256977 0.06274357 0.16437815 -0.013762654
0.25951982 -0.17877546 0.005948649 0.041490585 0.19997285 -0.067729615 0.22512276 0.2868122
-0.3094343 0.23344836 -0.26601425 -0.22914426 -0.17006418 0.011198949 -0.15713261 0.015981099
-0.2344764 0.1575466 -0.1557642 0.18987823 0.14495891 0.27361834 0.13999487 0.030490981
0.26738113 -0.018840445 0.15422691 -0.3198308 -0.14037758 0.19761094 -0.063692205 0.23189698
0.058168616 0.08056385 0.17235616 -0.2077871 -0.17311908 0.2470854 -0.31243008 0.1352102
-0.1968823 0.043791283 0.026579533 -0.068836905 0.19947661 -0.28135303 0.1433283 -0.19332926
-0.29992038 0.055132657 0.20227431 0.24511978 -0.1560272 0.04859314 0.07082286 0.19903348
0.14006312 -0.10958912 -0.18318464 0.17243353 -0.21175575 -0.10239004 -0.15062802 0.21874507
0.08219745 -0.042150553 0.16062817 -0.15713127 -0.14200865 0.24605061 0.09388427 -0.102088906
00000000: 72f6 c23d dd27 d23d 7b3c 953c c8fc 9b3e
00000010: 9129 54be 3d1b 8bbe e1f7 633d 6fe9 0e3e
00000020: f07a 84be 2c02 24be a42c 6e3e 159b dd3d
00000030: 18ce 9fbd 1acd a5be 59fc 94be 6d20 0fbe
00000040: 4091 23be 4592 15bd f464 3b3e a8b5 293d
00000050: bddc 8b3e f518 473e 6dac 97be 7d19 0cbe
00000060: 2d4c 403d ab15 0abe a005 5d3e b38d d63d
00000070: 6dcd 1e3e 7b8b d2bc 2d90 0e3d ecca 63be
00000080: 7f78 f2bd 0b1b 043e ee25 ba3c 5fc3 133d
00000090: 3062 ff3d 1211 11be 50ed 933d 6fde 733e
000000a0: 7c53 a5be b79e dd3d a0de a13e c3a2 473e
000000b0: c3e5 a33d 135a 833e ddc4 9b3d 4d1a 6cbc
000000c0: 5012 41bd cc3f c1bd de7d 5cbe ebeb 47be
000000d0: 11f1 a2be 97c6 97be 9222 cfbd d0cf 3fbe
000000e0: 5e03 d8bd d3c8 a2be 034b 653e 0af8 75bc
000000f0: 4fa4 313e 5554 693e 9b27 2dbd b7b8 c13d
00000100: a328 e03d e5c2 943e 433d 943e 6693 14be
00000110: acba 99be 79d6 38bd 432f 273e ffe7 e63d
00000120: 549e ff3d dcd2 51be d77f 023e 7516 2dbd
00000130: 1bfb 0c3d 5f57 dabd c355 1bbe 5dff afbd
00000140: b2cf 943e c53d 853e c17f 73be df30 523e
00000150: 08ae b73e cedb 693e d8d4 99be e452 febd
00000160: e475 80be 41d3 113e 1f52 0d3e 5a20 f13d
00000170: 6b45 8a3e d32e c1bd 0a47 25be 38f6 3f3e
00000180: 3b72 06bb 33f3 ddbc 1b0a 95be 8536 873e
00000190: d5f5 18be 4389 b83e 19e9 6a3e a991 5bbe
000001a0: 8ea1 313e 1225 07be e157 5ebe 8063 833e
000001b0: 2837 50bd dca2 1e3e 8c42 97be c836 563e
000001c0: f2e8 03be 6ba8 3abe 777e 17be ebda 373e
000001d0: b9ac 483e aa2b f7bd 20ed 99bd 40d4 4bbe
000001e0: 33f1 acbe e88c 3abd abcb 9fbe dc61 053e
000001f0: dd28 c2bd 3763 b4bd 7184 3b3e 19c8 a53e
00000200: 5477 39be b706 a83e 0d7e 3d3e a156 a33d
00000210: d329 19be b218 8d3e e774 e7bd ae30 2e3e
00000220: e4d3 a33d 401f 78be d5e3 63be 0f44 be3d
00000230: 75dc 7e3d a39f 393e fba8 92be b7aa 2f3e
00000240: bb28 3ebe e0fb d3ba 4b35 edbd 3130 b63e
00000250: 87e4 553d 3e78 903d fde6 a8be 6ac6 873e
00000260: fc36 33be b017 a3bd a719 08bd d030 45be
00000270: 73ad 3d3e 869a 7e3e 5803 93be 52a6 42bd
00000280: 3d30 073e c9d2 bd3d be27 903e 5e70 e23c
00000290: 831f 763d aa04 6dbd 952f 52be b582 7bbc
000002a0: 41d1 863e feb6 25be 6b68 003e fc9f 72be
000002b0: bba0 d13c ec3f 303e 41d7 85be 3433 323d
000002c0: 71d7 82be 78af 4e3e df32 92be f2fc 8a3e
000002d0: 736e 4f3e b37f 803d bf52 283e c17c 61bc
000002e0: c8df 843e ea10 37be e2ec c23b 08f2 293d
000002f0: afc5 4c3e d3b5 8abd 9586 663e 0cd9 923e
00000300: 2c6e 9ebe 160d 6f3e 0533 88be cba4 6abe
00000310: 4e25 2ebe cc7b 373c 5fe7 20be cbea 823c
00000320: 951a 70be e553 213e a780 1fbe 706f 423e
00000330: 1c70 143e b417 8c3e d15a 0f3e 39c8 f93c
00000340: 2ee6 883e 4757 9abc a9ed 1d3e ddc0 a3be
00000350: 24bf 0fbe 865a 4a3e 0f71 82bd 6776 6d3e
00000360: 3742 6e3d a9fe a43d 227e 303e 24c6 54be
00000370: 2146 31be f503 7d3e d6f6 9fbe 8b74 0a3e
00000380: 839b 49be 7d5e 333d 52bd d93c 5dfa 8cbd
00000390: 9943 4c3e 810d 90be a7c4 123e 1bf8 45be
000003a0: 2a8f 99be c8d2 613d ff20 4f3e ae00 7b3e
000003b0: 98c5 1fbe 9a09 473d 930b 913d 6fcf 4b3e
000003c0: b56c 0f3e 4370 e0bd c194 3bbe 6a92 303e
000003d0: 80d6 58be dfb1 d1bd 3b3e 1abe b5fe 5f3e
000003e0: 2357 a83d 0fa6 2cbd b67b 243e 05e7 20be
000003f0: b76a 11be b1f4 7b3e 6546 c03d fd13 d1bd

weight_hh_l0 f4 [40, 10]
0.14456621 0.16843222 0.23710825 -0.16545166 0.010405954 -0.10615663 0.08211424 -0.06867635
0.11770453 -0.15018415 0.07283907 0.11572535 0.13162437 0.24203086 0.19561708 0.15137886
-0.11106425 -0.0603389 0.053167388 -0.37783507 -0.20853092 0.3568574 0.017100133 0.015666412
-0.2993165 -0.015995875 0.35660315 -0.21941821 -0.2109649 -0.21140516 0.2820898 -0.28357255
-0.00841474 0.2383671 -0.0717777 -0.11945774 -0.16500129 0.27948043 0.16213238 0.17648186
0.1132983 -0.247638 0.12250273 0.08151647 -0.07496723 -0.16704434 -0.26753303 -0.25846133
0.3503781 -0.20914789 0.038739454 -0.18858877 -0.25282335 -0.14045866 -0.10926307 0.07055713
0.30648643 0.052454334 0.17629619 0.025954869 -0.17146198 0.28096133 -0.10564774 -0.06563131
-0.1730157 -0.20291416 0.0012910878 -0.04854541 -0.1260164 0.10390324 0.35722646 -0.028586663
-0.19244063 0.057366837 0.004738772 0.27256054 0.16812631 -0.34576097 -0.06673554 -0.28321525
-0.107481085 0.38169578 0.21743722 0.23995833 -0.023925934 0.40449047 0.3571901 0.19652273
0.10210053 0.0015144444 -0.23980047 -0.19378977 -0.3419658 -0.07690839 -0.2725291 0.35232577
0.16355154 -0.08676609 0.13304992 0.11880839 0.18657409 0.26747233 0.081715666 0.24109297
-0.09701779 0.00857715 0.30427605 -0.26104307 0.019521851 -0.09140165 0.33834505 0.043879926
-0.08303832 0.0035301484 0.043649364 0.22602531 -0.1282637 -0.050529264 0.20696081 0.17702062
0.23146752 0.20378087 0.07289346 0.023981027 -0.04263365 -0.023719795 0.03451074 -0.24635828
0.24944277 -0.13180123 -0.2212366 -0.13622925 0.09362496 -0.23871155 -0.28428453 0.25893596
0.104508206 -0.2952046 0.22047415 -0.15459344 0.24402155 -0.07137952 0.22696887 -0.2060046
0.078121394 0.030836014 0.2660867 0.081605785 0.3177162 -0.12261305 0.17684677 -0.22929576
-0.19451353 -0.34021363 0.20614156 -0.22045405 0.06456484 0.13516706 0.0887893 0.033260264
0.18455283 0.067237094 0.17886707 0.11554302 -0.16903947 0.40471718 0.06583384 0.049553104
0.39319786 -0.32692605 0.011608562 0.30181113 -0.3071972 0.16542421 -0.048325516 0.18360625
0.11446084 -0.022461794 0.24549247 -0.09998089 -0.11336599 0.20106977 -0.07216906 0.021838062
-0.11184658 -0.20778342 -0.11612163 0.058179345 -0.19478258 0.074671365 -0.02131921 -0.07698796
0.26263443 0.27679032 -0.3170322 0.2794271 0.2843572 -0.17330344 0.2218512 -0.02462987
0.038920384 -0.23964055 -0.17633526 -0.019024195 -0.28830048 -0.27133444 0.07624093 0.23916526
0.14974658 0.1970007 -0.10585434 -0.054789636 0.006568678 0.19141218 -0.36847696 0.23776215
0.19612278 0.27924815 0.36728805 0.10302809 -0.11538297 -0.1887417 -0.13360433 0.022118704
-0.08127359 0.036435097 -0.03011093 -0.2271468 -0.24631236 0.014088516 0.30078417 0.27283096
-0.16910978 0.043577567 -0.06954197 -0.20642947 0.051682223 -0.25449395 0.09610022 0.14475173
-0.24115442 -0.2769218 -0.0031172177 -0.034110606 -0.07507127 -0.25316244 -0.33393136 0.23972648
0.15349483 0.27692145 -0.28025526 -0.1670319 0.28928027 -0.19154973 0.20960179 0.29273453
00000000: 2a09 143e 7f79 2c3e 81cc 723e 296c 29be
00000010: bc7d 2a3c a668 d9bd 832b a83d 30a6 8cbd
00000020: 130f f13d e0c9 19be a62c 953d 6a01 ed3d
00000030: 8ac8 063e f0d6 773e d84f 483e 0f03 1b3e
00000040: a775 e3bd ec25 77bd 0cc6 593d 9973 c1be
00000050: 2189 55be 03b6 b63e 9415 8c3c d956 803c
00000060: 0340 99be c809 83bc b094 b63e 2baf 60be
00000070: 2f07 58be 987a 58be 136e 903e 6c30 91be
00000080: fadd 09bc 8116 743e 3000 93bd 42a6 f4bd
00000090: 19f6 28be 0f18 8f3e 0806 263e a9b7 343e
000000a0: f008 e83d d194 7dbe b6e2 fa3d 1bf2 a63d
000000b0: 6b88 99bd ac0d 2bbe 17fa 88be 0b55 84be
000000c0: c264 b33e dd2a 56be 43ad 1e3d 6a1d 41be
000000d0: 1072 81be 65d4 0fbe 51c5 dfbd 4280 903d
000000e0: caeb 9c3e 5bda 563d fd86 343e 4e9f d43c
000000f0: bb93 2fbe 2ada 8f3e d85d d8bd b569 86bd
00000100: 072b 31be bbc8 4fbe b839 a93a 8dd7 46bd
00000110: 710a 01be 39cb d43d 63e6 b63e 942e eabc
00000120: 280f 45be 7df9 6a3d b347 9b3b 0e8d 8b3e
00000130: 4e29 2c3e 9507 b1be a5ac 88bd 9701 91be
00000140: 0b1f dcbd a16d c33e dda7 5e3e a3b7 753e
00000150: 5200 c4bc 6019 cf3e 9fe1 b63e 413d 493e
00000160: 151a d13d 5280 c63a 418e 75be d370 46be
00000170: 2416 afbe 2582 9dbd ef88 8bbe 0b64 b43e
00000180: 0e7a 273e 6bb2 b1bd 3d3e 083e d051 f33d
00000190: 470d 3f3e 22f2 883e 8b5a a73d 13e1 763e
000001a0: 43b1 c6bd 2d87 0c3c 12ca 9b3e 70a7 85be
000001b0: 4aec 9f3c ca30 bbbd 903b ad3e 70bb 333d
000001c0: ff0f aabd 105a 673b adc9 323d 2e73 673e
000001d0: 8f57 03be c6f7 4ebd 89ed 533e e544 353e
000001e0: d205 6d3e efab 503e 2b49 953d dc73 c43c
000001f0: 9fa0 2ebd 0450 c2bc 225b 0d3d 5845 7cbe
00000200: ed6d 7f3e e7f6 06be d98b 62be ae7f 0bbe
00000210: 71be bf3d cd70 74be be8d 91be 4193 843e
00000220: 6608 d63d 0f25 97be fac3 613e be4d 1ebe
00000230: c9e0 793e 6d2f 92bd 876a 683e dff2 52be
00000240: 1cfe 9f3d cf9b fc3c 843c 883e ef20 a73d
00000250: b3ab a23e 8d1c fbbd 5217 353e 82cc 6abe
00000260: 8e2e 47be 7b30 aebe c616 533e b5be 61be
00000270: 923a 843d 3c69 0a3e 2ad7 b53d ea3b 083d
00000280: 6bfb 3c3e 9ab3 893d ee28 373e d2a1 ec3d
00000290: af18 2dbe 1737 cf3e e4d3 863d 32f8 4a3d
000002a0: 3b51 c93e da62 a7be d731 3e3c fd86 9a3e
000002b0: f448 9dbe f764 293e faf0 45bd 4703 3c3e
000002c0: 726a ea3d cc01 b8bc 6162 7b3e c8c2 ccbd
000002d0: 6e2c e8bd 3ce5 4d3e 5fcd 93bd bce5 b23c
000002e0: d20f e5bd 2dc5 54be 2dd1 edbd 774d 6e3d
000002f0: 1675 47be 4ded 983d a0a5 aebc ddab 9dbd
00000300: 0578 863e 76b7 8d3e 0b52 a2be 1211 8f3e
00000310: 4497 913e 7576 31be f62c 633e 95c4 c9bc
00000320: fb6a 1f3d 5564 75be 3b91 34be a1d8 9bbc
00000330: 1f9c 93be 59ec 8abe 3424 9c3d bde7 743e
00000340: 2b57 193e 8dba 493e 29ca d8bd 196b 60bd
00000350: 113e d73b 8e01 443e 03a9 bcbe ec77 733e
00000360: 69d4 483e 9df9 8e3e 2e0d bc3e 6400 d33d
00000370: e84d ecbd 8145 41be 93cf 08be 4932 b53c
00000380: c572 a6bd f83c 153d 32ab f6bc 2c99 68be
00000390: 4f39 7cbe 85d3 663c 6200 9a3e 80b0 8b3e
000003a0: 1d2b 2dbe 647e 323d 056c 8ebd 3f62 53be
000003b0: bdb0 533d 084d 82be 31d0 c43d cc39 143e
000003c0: 2ff1 76be b2c8 8dbe 3c4a 4cbb 90b7 0bbd
000003d0: f7be 99bd 829e 81be 0df9 aabe dc7a 753e
000003e0: c02d 1d3e a6c8 8d3e 9e7d 8fbe 690a 2bbe
000003f0: 8b1c 943e 9d25 44be daa1 563e 4de1 953e

bias_ih_l0 f4 [40]
0.35063362 -0.015537884 0.18593824 0.083630554 -0.020996703 0.17629284 -0.095376484 -0.03620206
0.2512724 -0.10860997 -0.015170456 0.17486879 0.22745293 -0.11679621 -0.19849168 0.23595618
0.17576185 0.2735829 0.2662288 0.27262387 0.3422668 0.11182707 -0.20603426 -0.17641471
-0.2643887 0.32442644 0.18779224 -0.31335035 0.17328556 -0.16728084 -0.10456042 -0.10583193
-0.13063957 -0.097971134 0.24547347 0.3949257 0.28206354 -0.0061642095 -0.13889334 0.113994755
00000000: 4086 b33e 9c92 7ebc 9866 3e3e 7f46 ab3d
00000010: 4701 acbc 1c86 343e bf54 c3bd 9c48 14bd
00000020: c7a6 803e e76e debd 818d 78bc ce10 333e
00000030: 6ce9 683e da32 efbd 6741 4bbe 7f9e 713e
00000040: eafa 333e 0f13 8c3e 244f 883e 5b95 8b3e
00000050: 983d af3e 9705 e53d a5fa 52be 0fa6 34be
00000060: f55d 87be 391b a63e 9c4c 403e 756f a0be
00000070: c571 313e ab4b 2bbe c623 d6bd 69be d8bd
00000080: 61c6 05be 17a5 c8bd 665d 7b3e b433 ca3e
00000090: a26a 903e 23fd c9bb 0e3a 0ebe 1576 e93d

bias_hh_l0 f4 [40]
0.24843863 0.1878463 0.2411197 -0.2965572 -0.043085337 0.04140853 -0.007426513 0.008387843
-0.01904048 0.04821394 0.2890846 0.3772611 0.12596214 -0.19334164 0.29373938 -0.2795297
-0.102442294 0.18266691 -0.020540081 0.21684428 0.24252155 0.04501538 -0.31956458 0.26123336
0.04017146 0.01992903 0.17849322 -0.34014314 -0.18243212 0.0032504878 0.22269234 -0.019710815
0.08262575 0.14523873 -0.14961196 0.06489504 0.0032640304 0.29368302 0.26067996 -0.068463355
00000000: b266 7e3e c85a 403e 15e8 763e 58d6 97be
00000010: 407a 30bd fe9b 293d 1b5a f3bb 2a6d 093c
00000020: c8fa 9bbc fb7b 453d e602 943e 5e28 c13e
00000030: 38fc 003e 5afb 45be 0265 963e 841e 8fbe
00000040: 44cd d1bd 090d 3b3e ac43 a8bc 6d0c 5e3e
00000050: 9257 783e 0c62 383d f89d a3be 61c0 853e
00000060: d48a 243d 3542 a33c edc6 363e 3e27 aebe
00000070: 7ccf 3abe 2306 553b 7609 643e 9378 a1bc
00000080: b037 a93d 76b9 143e e133 19be b1e7 843d
00000090: 58e9 553b 9f5d 963e d877 853e 8436 8cbd

weight_ih_l0 f4 [40, 22]
-0.2390814 0.041174766 0.13477474 0.22827572 -0.07896118 0.20125552 0.043841947 0.21183503
0.26763567 0.19318634 -0.01043068 0.030420974 -0.014810826 -0.16247286 0.010408942 0.07122694
-0.20392898 -0.05951484 -0.19353572 0.40822017 0.27058908 0.18286774 -0.1905536 -0.24895874
-0.1264311 -0.13705866 -0.26583615 -0.2716068 -0.3103558 -0.13527225 0.0023125946 0.37635928
-0.25458613 -0.17487113 0.2281517 -0.17089131 0.046634413 0.1561606 -0.16778776 0.051596753
-0.35681868 0.24783704 0.17049627 0.03826107 -0.11527978 -0.2803483 -0.023098562 -0.09360775
-0.11256299 0.31508344 -0.13331021 0.048711497 -0.048471052 -0.18021345 0.23819073 0.10227882
-0.19998479 -0.010235084 -0.017971676 0.26022696 0.04367381 0.3048468 -0.34228402 0.2544316
0.1412782 -0.10894749 -0.31436455 0.0315814 -0.3484265 0.02450183 -0.3708248 -0.17832004
0.04755467 0.21287982 0.27626777 -0.13509089 -0.4553609 0.1501274 -0.14626329 0.05565952
-0.14187145 0.115233354 0.121031836 0.15510087 -0.2470101 0.13546236 0.26302034 0.1198237
0.21740472 0.009565473 -0.04760763 0.2901193 0.21044284 -0.27478752 0.16664498 0.40751326
-0.025757398 0.43609536 -0.060006257 0.2499035 -0.39181572 0.1398782 0.05560288 0.050301183
0.0037259373 0.17717732 -0.25669473 0.2603029 0.21272466 0.41827953 0.2818347 -0.18741909
0.19160919 -0.17870711 -0.15448503 -0.07934777 0.198765 -0.18014257 0.07192401 0.006214449
-0.06349131 0.10300866 0.25860596 -0.21070464 -0.19074625 0.33659512 -0.19694804 -0.35793322
0.37604383 -0.13107462 0.21069324 0.13204642 -0.29165733 -0.1007995 0.24782494 0.1440228
0.22944514 0.112717144 0.28756243 -0.069167115 -0.056901433 -0.3832305 0.08227783 0.13753544
0.28723425 0.12184244 -0.12182968 0.2677617 0.15337963 0.09131728 0.036555596 0.37172335
0.2090302 -0.010015593 0.15162179 -0.24685739 0.16477683 0.0377067 -0.024624854 -0.19669694
0.10144053 -0.1434084 -0.32069227 0.090589434 0.18037741 -0.11764721 -0.40368247 -0.35110497
-0.19441308 -0.11697313 -0.39992428 -0.10118022 -0.06296606 0.21090677 0.20315154 -0.0406304
0.2106621 0.0677857 -0.20517911 0.04189305 0.0859062 0.19530897 0.008666497 0.27474657
-0.29400128 -0.09453566 -0.18587093 0.15765291 0.2934505 -0.25601214 0.35857716 0.22268324
0.19910331 -0.14944871 0.29858378 0.21306214 -0.08239358 -0.2864391 -0.16614725 -0.25449884
0.10272152 -0.0012319592 0.15838657 0.20507199 -0.3242728 0.20640709 0.29938617 0.28831303
-0.25328225 -0.038734864 0.026973322 0.26734427 0.0130272 0.23386182 -0.040923838 -0.024522735
0.07941302 -0.21615732 0.26519176 -0.053608503 0.019236948 0.19777386 0.1907466 -0.038302552
0.21038575 -0.04572983 -0.13234864 -0.06230341 -0.24160518 -0.3234889 0.07547606 0.20699391
-0.16564888 -0.1636324 0.22855671 0.1922996 -0.097704634 -0.28332007 -0.10088551 0.31444126
0.22537073 -0.2153372 -0.18637642 0.120855235 0.052175317 -0.12790857 0.0057265693 0.10305903
-0.3569677 0.16511804 -0.23351996 -0.070948504 -0.1384039 0.096632384 -0.27126852 0.18978487
00000000: c1d1 74be dfa6 283d 6402 0a3e 1cc1 693e
00000010: 66b6 a1bd ed15 4e3e 9d93 333d 48eb 583e
00000020: 8b07 893e a4d2 453e 71e5 2abc 6835 f93c
00000030: 1ba9 72bc 495f 26be 448a 2a3c 6edf 913d
00000040: c2d2 50be d5c5 73bd 3a2e 46be 3c02 d13e
00000050: a78a 8a3e ae41 3b3e 7c20 43be 0aef 7ebe
00000060: 2777 01be 1b59 0cbe ad1b 88be 0c10 8bbe
00000070: f5e6 9ebe cf84 0abe e68e 173b 2ab2 c03e
00000080: 1d59 82be 6b11 33be 99a0 693e 22fe 2ebe
00000090: ba03 3f3d 90e8 1f3e 8ed0 2bbe 1e57 533d
000000a0: f0b0 b6be fec8 7d3e 9396 2e3e a4b7 1c3d
000000b0: ce17 ecbd d089 8fbe 3239 bdbc 6cb5 bfbd
000000c0: 6d87 e6bd 9e52 a13e 7982 08be b585 473d
000000d0: 9589 46bd e089 38be 45e8 733e 8f77 d13d
000000e0: d0c8 4cbe 0eb1 27bc 5639 93bc 783c 853e
000000f0: 4fe3 323d e114 9c3e da3f afbe dc44 823e
00000100: 3cab 103e dd1f dfbd 64f4 a0be 805b 013d
00000110: f564 b2be 10b8 c83c c0dc bdbe 8799 36be
00000120: b0c8 423d 2bfd 593e f872 8d3e 4455 0abe
00000130: 1025 e9be ffba 193e 0bc6 15be 3dfb 633d
00000140: c046 11be 77ff eb3d 8adf f73d c3d2 1e3e
00000150: 37f0 7cbe a5b6 0a3e 9aaa 863e 2166 f53d
00000160: 589f 5e3e 80b8 1c3c 3800 43bd 848a 943e
00000170: 547e 573e f3b0 8cbe fba4 2a3e 94a5 d03e
00000180: 2e01 d3bc e447 df3e 1fc9 75bd b4e6 7f3e
00000190: 129c c8be 3b3c 0f3e d8bf 633d 9d08 4e3d
000001a0: db2e 743b f96d 353e 7e6d 83be 6c46 853e
000001b0: 7ed4 593e bc28 d63e a34c 903e caea 3fbe
000001c0: 3335 443e fffe 36be 5331 1ebe 1581 a2bd
000001d0: 0d89 4b3e 4b77 38be e54c 933d 94a2 cb3b
000001e0: bb07 82bd 34f6 d23d 0068 843e f5c2 57be
000001f0: fc52 43be 3256 ac3e bfac 49be 0643 b7be
00000200: d188 c03e 6d38 06be f8bf 573e 2d37 073e
00000210: 1c54 95be f86f cebd d2c5 7d3e b67a 133e
00000220: abf3 6a3e 3fd8 e63d 623b 933e 7da7 8dbd
00000230: 7a11 69bd ca36 c4be 4781 a83d 17d6 0c3e
00000240: 5e10 933e 8788 f93d d781 f9bd 1018 893e
00000250: 8d0f 1d3e 8e04 bb3d 52bb 153d 8652 be3e
00000260: 030c 563e 7118 24bc be42 1b3e 2fc8 7cbe
00000270: 42bb 283e 5772 1a3d 10ba c9bc ec6a 49be
00000280: 0dc0 cf3d a7d9 12be c731 a4be f486 b93d
00000290: dbb4 383e 05f1 f0bd 78af cebe 08c4 b3be
000002a0: 3914 47be 9c8f efbd e0c2 ccbe 9337 cfbd
000002b0: 5af4 80bd f2f7 573e f506 503e 106c 26bd
000002c0: ceb7 573e 3bd3 8a3d 791a 52be 0c98 2b3d
000002d0: 97ef af3d 13ff 473e ecfd 0d3c 95ab 8c3e
000002e0: 5687 96be ea9b c1bd f354 3ebe c46f 213e
000002f0: 253f 963e 0614 83be 6d97 b73e 1307 643e
00000300: bde1 4b3e 1509 19be f9df 983e f62c 5a3e
00000310: f7bd a8bd 25a8 92be 8122 2abe ac4d 82be
00000320: a95f d23d b179 a1ba 1730 223e 64fe 513e
00000330: 1607 a6be 615c 533e 2549 993e c49d 933e
00000340: 36ae 81be 73a8 1ebd 28f7 dc3c 59e1 883e
00000350: 0970 553c 7979 6f3e c19f 27bd e7e3 c8bc
00000360: 4ba3 a23d 5858 5dbe 37c7 873e 9794 5bbd
00000370: ce96 9d3c 3b85 4a3e 1453 433e 23e3 1cbd
00000380: 5d6f 573e 344f 3bbd 6786 07be dc31 7fbd
00000390: 5967 77be 56a0 a5be 3193 9a3d 36f6 533e
000003a0: dc9f 29be 408f 27be c50a 6a3e 30ea 443e
000003b0: 5e19 c8bd 540f 91be 109d cebd 72fe a03e
000003c0: 96c7 663e 5b81 5cbe 76d9 3ebe f382 f73d
000003d0: c9b5 553d 77fa 02be f2a5 bb3b 9d10 d33d
000003e0: 78c4 b6be b414 293e db1f 6fbe 734d 91bd
000003f0: c1b9 0dbe 33e7 c53d b5e3 8abe f756 423e

weight_hh_l0 f4 [40, 10]
-0.121699795 0.03662432 -0.14240047 -0.059743267 0.08084863 0.052035797 -0.32585946 0.24188022
0.20504189 0.031460643 0.237705 0.27176115 0.23789228 0.0611217 0.10336989 -0.16611156
0.122441664 -0.24256313 0.26680097 -0.3192308 -0.114288636 0.30374116 0.11036692 0.16410455
-0.16759698 0.013046616 -0.33613548 0.4162988 -0.0878627 -0.30717784 0.2808592 0.028128065
-0.101018496 0.06465828 0.18732925 -0.24747197 -0.13939762 -0.099135675 0.35036913 -0.3847717
-0.3958173 0.25827262 0.32901084 -0.47029838 0.019552737 -0.118086964 -0.17615463 0.12715413
0.156039 -0.15189193 -0.23488484 -0.28315452 -0.00504019 -0.32147563 -0.24645461 -0.26757893
-0.049595237 0.19812633 -0.22831784 0.18421341 0.015800623 0.019419275 0.08351994 -0.0060233464
-0.14532167 -0.23649439 0.011443081 -0.06495236 0.04759706 0.0105732605 -0.12463194 0.18025678
0.070034616 0.16964526 -0.2765772 0.16597961 -0.33076468 -0.215571 0.38441578 -0.3608365
-0.26818174 0.119956344 0.07454769 -0.16541858 -0.10295092 -0.3426321 0.030354792 -0.09073405
0.029172335 0.015412056 0.18760249 0.013086691 0.17437094 0.019820297 -0.24809875 -0.22117639
0.18591008 -0.169776 0.17956208 0.05811047 -0.013999938 -0.20491846 -0.2604635 0.048319742
-0.15559994 -0.1342137 -0.25339082 -0.06698638 -0.061720654 0.08492085 0.04637111 0.1727494
-0.15888357 -0.3074713 -0.20960434 -0.15160672 0.08238408 -0.31225178 0.2480209 -0.2580847
-0.14342092 0.18528295 -0.0052159526 0.16511463 -0.0666942 0.15346856 -0.35089263 0.268295
-0.17849843 -0.07031122 -0.060428273 -0.09440646 0.008569765 -0.3235082 -0.30674577 0.19767788
-0.25610697 -0.1728316 -0.19961688 -0.12613346 -0.24214607 -0.31595486 -0.018473463 -0.24600735
-0.13027106 0.07036603 -0.24798611 0.20654716 0.21943606 -0.15236637 -0.0006286796 -0.011476647
-0.021611001 -0.17234741 0.14727874 -0.037145678 0.027029721 0.022188889 -0.12556009 -0.05485656
-0.16583423 -0.21354087 -0.01071194 -0.17080346 -0.10551378 -0.17275643 0.070966706 0.28596467
0.28644058 -0.24807383 -0.0072013726 0.3463816 -0.116180025 -0.16216983 -0.12596911 -0.24694301
0.04831615 0.2516727 0.3411784 -0.27745467 0.21468624 0.21543807 0.20339279 0.07007953
-0.27123508 -0.3490191 0.12540156 -0.070853285 0.2900401 -0.192912 -0.21486165 0.22520852
0.35110468 -0.07727324 -0.557596 0.37539756 0.03821928 -0.23235504 0.037588026 0.14374429
-0.14446759 -0.13811266 0.30581266 0.2108043 0.07161185 0.023410574 0.1857426 -0.10302944
-0.097073354 0.2908614 0.23010345 0.21035087 -0.2130958 -0.016138216 0.20867899 -0.07514158
0.016905742 -0.00540928 0.18441406 0.3119416 -0.39348212 -0.19287127 0.23939429 -0.15536886
0.25027585 -0.21724084 -0.14836648 0.027808858 0.335543 -0.16663408 -0.29062885 -0.20741774
0.18818367 -0.19164568 -0.06631258 0.13440761 -0.102926165 -0.00664089 -0.022975795 -0.19315654
-0.1393704 -0.20269819 0.12138066 0.02604595 -0.19090767 0.2527837 -0.23557918 0.3705991
0.087376334 0.032456562 0.019399391 -0.17796326 -0.002330806 0.2758492 0.13034101 0.27756074
00000000: be3d f9bd 6203 163d 6ed1 11be 5bb5 74bd
00000010: f793 a53d 7d23 553d 0dd7 a6be 73af 773e
00000020: 80f6 513e e0dc 003d f168 733e 4724 8b3e
00000030: 099a 733e bf5a 7a3d 98b3 d33d 2619 2abe
00000040: b2c2 fa3d 7862 78be 239a 883e 3872 a3be
00000050: 2910 eabd f683 9b3e 0d08 e23d 060b 283e
00000060: 8b9e 2bbe 79c1 553c f319 acbe 1e25 d53e
00000070: 5cf1 b3bd 6a46 9dbe c7cc 8f3e d46c e63c
00000080: c9e2 cebd 8f6b 843d 3dd3 3f3e 4b69 7dbe
00000090: 40be 0ebe a507 cbbd 9563 b33e cc00 c5be
000000a0: 91a8 cabe 4f3c 843e 1c74 a83e f3ca f0be
000000b0: 102d a03c 94d7 f1bd e161 34be b134 023e
000000c0: b0c8 1f3e 8f89 1bbe a785 70be a1f9 90be
000000d0: 2e28 a5bb 7498 a4be 995e 7cbe 1b00 89be
000000e0: 6024 4bbd a1e1 4a3e 27cc 69be 71a2 3c3e
000000f0: 4f70 813c 2c15 9f3c 810c ab3d 7e5f c5bb
00000100: 34cf 14be 962b 72be c37b 3b3c be05 85bd
00000110: 23f5 423d 783b 2d3c 083f ffbd 3c95 383e
00000120: 4f6e 8f3d 7db7 2d3e 879b 8dbe 8ff6 293e
00000130: fd59 a9be a5be 5cbe 25d2 c43e 90bf b8be
00000140: 1e4f 89be acab f53d 76ac 983d 7d63 29be
00000150: efd7 d2bd 7a6d afbe 9daa f83c c6d2 b9bd
00000160: d2fa ee3c d982 7c3c de1a 403e 8f69 563c
00000170: 4c8e 323e 2d5e a23c 990d 7ebe 107c 62be
00000180: 365f 3e3e c2d9 2dbe 1fdf 373e 3f05 6e3d
00000190: ff5f 65bc 25d6 51be 795b 85be ecea 453d
000001a0: 9755 1fbe 516f 09be 71bc 81be 2830 89bd
000001b0: ccce 7cbd fcea ad3d a2ef 3d3d 38e5 303e
000001c0: 60b2 22be e16c 9dbe 85a2 56be cb3e 1bbe
000001d0: fcb8 a83d 77df 9fbe 31f9 7d3e ae23 84be
000001e0: efdc 12be d0ba 3d3e 95ea aabb cf13 293e
000001f0: f896 88bd dd26 1d3e 33a8 b3be f65d 893e
00000200: 4bc8 36be 54ff 8fbd a383 77bd 2d58 c1bd
00000210: 3368 0c3c dea2 a5be c80d 9dbe 126c 4a3e
00000220: 7420 83be c4fa 30be 5e68 4cbe 2129 01be
00000230: 24f5 77be d6c4 a1be a955 97bc 5ae9 7bbe
00000240: c765 05be 111c 903d 12f0 7dbe 1981 533e
00000250: d9b3 603e ee05 1cbe f9cd 24ba 8c08 3cbc
00000260: 8e09 b1bc d77b 30be 3dd0 163e 1126 18bd
00000270: 6f6d dd3c 79c5 b53c d392 00be 46b1 60bd
00000280: 73d0 29be 75aa 5abe 2281 2fbc 1ae7 2ebe
00000290: 9c17 d8bd 10e7 30be fe56 913d f669 923e
000002a0: 57a8 923e 1107 7ebe 7ef9 ebbb ee58 b13e
000002b0: cbef edbd d90f 26be 0cfe 00be a1de 7cbe
000002c0: 28e7 453d 3edb 803e efae ae3e 8a0e 8ebe
000002d0: b6d6 5b3e cc9b 5c3e 3346 503e db85 8f3d
000002e0: 53df 8abe a2b2 b2be 4469 003e 871b 91bd
000002f0: 2380 943e b98a 45be b104 5cbe 109d 663e
00000300: fec3 b33e 6f41 9ebd 9dbe 0ebf 1c34 c03e
00000310: d28b 1c3d 7bee 6dbe e7f5 193d b431 133e
00000320: 50ef 13be 686d 0dbe 7a93 9c3e 15dd 573e
00000330: 3ca9 923d 88c7 bf3c 4f33 3e3e 1901 d3bd
00000340: 65ce c6bd c9eb 943e 3da0 6b3e 3866 573e
00000350: c935 5abe 4b34 84bc f2af 553e d4e3 99bd
00000360: e97d 8a3c 5440 b1bb 0ad7 3c3e cfb6 9f3e
00000370: 7d76 c9be 0c80 45be c723 753e 0419 1fbe
00000380: 2824 803e 6274 5ebe 62ed 17be 67cf e33c
00000390: 4bcc ab3e 20a2 2abe 4ecd 94be 5165 54be
000003a0: 38b3 403e c43e 44be e4ce 87bd 26a2 093e
000003b0: f4ca d2bd d39b d9bb bc37 bcbc d4ca 45be
000003c0: 1db7 0ebe 1d90 4fbe 6c96 f83d 515e d53c
000003d0: 4d7d 43be dd6c 813e ab3b 71be 2abf bd3e
000003e0: 5df2 b23d 2cf1 043d 79eb 9e3c 003c 36be
000003f0: 70c0 18bb 1b3c 8d3e 1d78 053e 711c 8e3e

bias_ih_l0 f4 [40]
-0.09990573 0.18806791 -0.011862519 -0.24099785 -0.033482563 0.0016326531 -0.23190959 0.34793612
0.10292321 -0.16135255 -0.08873198 0.05467626 -0.15305609 0.2752102 -0.093135126 -0.20424613
0.09083194 0.15019652 -0.07919414 0.059347633 0.28973687 -0.07180416 0.08096604 -0.07492599
-0.282127 0.084204525 -0.16087054 0.21018352 0.20336121 0.14681503 -0.16783375 -0.059018336
0.12226204 -0.1791004 0.022429232 0.20967351 0.28354165 0.38039303 -0.14542362 0.04285118
00000000: 609b ccbd e094 403e 035b 42bc 24c8 76be
00000010: 0325 09bd bffe d53a b579 6dbe af24 b23e
00000020: 67c9 d23d 9a39 25be 1db9 b5bd 37f4 5f3d
00000030: bcba 1cbe 5ae8 8c3e a1bd bebd e625 51be
00000040: 1906 ba3d 1ecd 193e 8a30 a2bd 8116 733d
00000050: 6458 943e 0f0e 93bd 86d1 a53d cc72 99bd
00000060: f372 90be 6c73 ac3d 3fbb 24be 593a 573e
00000070: ec3d 503e ae56 163e 9cdc 2bbe 36bd 71bd
00000080: 8564 fa3d 1866 37be 82bd b73c a7b4 563e
00000090: 5f2c 913e e0c2 c23e eee9 14be b884 2f3d

bias_hh_l0 f4 [40]
-0.21932207 0.12522246 0.17077392 -0.036221206 0.29575548 0.22668251 -0.040681884 0.34676257
0.036798164 -0.24948417 0.30576038 0.049709227 0.017632592 0.3040382 0.017153487 -0.2456111
-0.167326 0.037415825 0.2746046 -0.1723501 0.30642506 0.19919904 0.0073418412 -0.13689345
0.1399919 0.31618446 0.071557924 0.14252657 0.27460253 0.078886524 0.30856994 -0.1877354
0.3310419 0.12947428 0.19000894 -0.20281638 0.31259447 -0.19919042 0.12065287 0.37397137
00000000: f795 60be 513a 003e 5cdf 2e3e b05c 14bd
00000010: 436d 973e 761f 683e 0ca2 26bd dd8a b13e
00000020: acb9 163d c778 7fbe a08c 9c3e e79b 4b3d
00000030: 3a72 903c e5aa 9b3e 7885 8c3c 7a81 7bbe
00000040: 8257 2bbe 5641 193d f998 8c3e 8b7c 30be
00000050: bfe3 9c3e d5fa 4b3e d493 f03b cc2d 0cbe
00000060: 095a 0f3e eee2 a13e f68c 923d 7cf2 113e
00000070: b498 8c3e 428f a13d e1fc 9d3e b53d 40be
00000080: 537e a93e e894 043e b491 423e 19af 4fbe
00000090: 620c a03e 93f8 4bbe da18 f73d 2d79 bf3e

weight_ih_l0 f4 [40, 22]
-0.2880308 0.080735974 -0.19995433 0.030931344 -0.09252126 0.09117689 0.010410654 -0.29331696
0.16049014 -0.31544816 0.058796316 0.28685728 0.006673453 -0.072805285 0.017820748 0.35543993
0.29540953 -0.08305645 0.2468418 0.2783405 0.2777578 -0.20365484 -0.2754628 -0.07459124
-0.044977058 -0.15847516 0.06733562 -0.2222301 -0.1336022 0.26435623 -0.052368924 -0.17888251
-0.08722555 0.3750935 -0.022763075 0.008004147 0.09399719 0.06412208 -0.15499936 0.006966965
-0.013345925 -0.25636342 -0.042032816 0.193829 0.042736035 0.11881921 -0.0719364 -0.104990914
0.101913966 0.06587311 -0.3016379 -0.17105624 0.22619233 -0.35252327 0.009941166 0.29662243
0.072149366 0.057940405 -0.12960406 0.07384877 -0.09546929 0.23055072 -0.0033209368 -0.14052156
0.27435204 -0.15381853 -0.19174919 0.34515643 0.2682018 0.37448156 0.14600722 -0.080857284
-0.059627324 0.3556758 0.14481808 0.064171635 -0.19981976 -0.043629114 -0.29504248 0.023893967
-0.173906 0.36408988 -0.14109632 0.11860039 0.21951996 -0.20832698 -0.19448261 -0.10701297
-0.15015903 -0.113045014 -0.050513472 -0.14185452 -0.078712374 -0.0052886065 -0.09445884 -0.20012483
-0.1729822 0.350549 -0.28134882 0.1986464 0.08178171 0.22228883 -0.15644339 0.2509669
0.15854807 0.06721576 -0.22308335 0.022427445 0.05098232 0.3144355 -0.15954348 -0.08469436
0.014218142 0.27761358 0.2917627 0.14433266 0.26514012 -0.15864396 -0.015858285 -0.3207142
-0.12581758 -0.27883384 0.09530823 -0.40530205 0.02813869 -0.28128102 0.19424488 0.03470784
-0.023676595 0.23971592 0.32570812 0.09492182 0.082293704 0.3202115 0.17539945 0.1084587
-0.2491215 0.17514421 -0.1670988 0.19627383 -0.006682924 0.032154195 0.2508974 0.14588612
0.04621018 0.10288684 -0.23264727 0.16666077 0.29339305 0.16037682 -0.13282035 0.28139958
-0.067509025 0.051634356 0.25133383 0.24983501 -0.102090634 0.19876102 0.23216477 -0.08622817
0.16711296 0.012256431 0.06131906 -0.061689958 -0.28855073 0.08962813 0.08048525 -0.09065867
0.10335033 0.34493276 -0.15226558 -0.077539854 0.019522725 -0.1663996 0.008246724 -0.028758254
-0.02592796 0.037200876 -0.1925765 0.11155352 -0.27811146 -0.08124749 -0.14879735 -0.0984267
-0.07818426 -0.2968006 0.121895194 0.19116177 -0.025401503 -0.20554315 -0.16344692 -0.17978245
0.02988821 -0.0593402 0.0348338 -0.053174708 0.0050246473 0.27779084 -0.025027772 0.16261834
0.20526087 -0.05752639 -0.16683581 -0.017247915 -0.20499572 -0.0034266713 -0.16915391 -0.26951778
0.18921587 0.13024147 -0.062383045 -0.12065622 -0.116100974 0.3298613 0.14122167 0.036944084
-0.078620344 0.16878062 0.28397214 0.25614253 -0.051727314 -0.20883018 -0.32221985 0.35273564
-0.06682494 0.15176341 -0.0035292788 -0.22604921 0.16098069 0.23483008 -0.047723986 0.38106894
-0.18527205 0.1945701 0.038943693 0.2905186 -0.2586265 -0.04626111 0.2430277 0.37805212
-0.103320464 0.12006721 0.258195 0.2261143 -0.17225294 0.28139704 0.20106411 -0.2460108
0.3335075 0.25498924 0.15512764 -0.29265794 -0.14579932 -0.20459318 -0.1892248 0.29222304
00000000: c678 93be e758 a53d d4c0 4cbe bb63 fd3c
00000010: c97b bdbd f3ba ba3d 7391 2a3c a42d 96be
00000020: 8757 243e 6c82 a1be 68d4 703d f5de 923e
00000030: fbac da3b f01a 95bd d1fc 913c 39fc b53e
00000040: eb3f 973e 8019 aabd 19c4 7c3e a582 8e3e
00000050: 4536 8e3e e58a 50be 7609 8dbe 4bc3 98bd
00000060: dd39 38bd 5047 22be 42e7 893d 4a90 63be
00000070: 04cf 08be b359 873e cc80 56bd fa2c 37be
00000080: 4fa3 b2bd 410c c03e a179 babc d323 033c
00000090: 9981 c03d 7052 833d 27b8 1ebe 234b e43b
000000a0: dea8 5abc 1142 83be 9a2a 2cbd 1c7b 463e
000000b0: fb0b 2f3d 7c57 f33d 6453 93bd 7a05 d7bd
000000c0: 45b8 d03d 7be8 863d 4870 9abe 5e29 2fbe
000000d0: f69e 673e ee7d b4be 46e0 223c e5de 973e
000000e0: 0cc3 933d eb52 6d3d edb6 04be 063e 973d
000000f0: 6785 c3bd 7d15 6c3e 13a4 59bb e2e4 0fbe
00000100: df77 8c3e 9b82 1dbe e659 44be 58b8 b03e
00000110: bf51 893e 0cbc bf3e eb82 153e 8198 a5bd
00000120: c83b 74bd 231b b63e 314b 143e 6b6c 833d
00000130: 8d9d 4cbe 71b4 32bd cf0f 97be 48bd c33c
00000140: 6a14 32be fd69 ba3e 8e7b 10be c3e4 f23d
00000150: d7c9 603e ab53 55be 7326 47be 9e29 dbbd
00000160: 4ac3 19be 2584 e7bd 37e7 4ebd 5042 11be
00000170: f433 a1bd 0c4c adbb a373 c1bd 86ed 4cbe
00000180: 3f22 31be 297b b33e f40c 90be f669 4b3e
00000190: 2b7d a73d af9f 633e b232 20be bc7e 803e
000001a0: 6d5a 223e 6ba8 893d f66f 64be c3b9 b73c
000001b0: d6d2 503d b1fd a03e 5e5f 23be 3d74 adbd
000001c0: 36f3 683c 5e23 8e3e ec61 953e f1cb 133e
000001d0: 72c0 873e 9073 22be 3ce9 81bc a734 a4be
000001e0: 53d6 00be 4fc3 8ebe f630 c33d c083 cfbe
000001f0: 1c83 e63c 1104 90be 21e8 463e cf29 0e3d
00000200: 6bf5 c1bc 1778 753e 37c3 a63e 5f66 c23d
00000210: 9a89 a83d c3f2 a33e ea9b 333e 981f de3d
00000220: b519 7fbe 0159 333e f31b 2bbe 02fc 483e
00000230: 6efc dabb 1eb4 033d a075 803e 2c63 153e
00000240: e346 3d3d 56b6 d23d 163b 6ebe 1fa9 2a3e
00000250: 9d37 963e d239 243e 0f02 08be 9b13 903e
00000260: 2c42 8abd 8c7e 533d d4ae 803e c0d4 7f3e
00000270: e514 d1bd 0288 4b3e 9abc 6d3e 6598 b0bd
00000280: a91f 2b3e 33cf 483c b229 7b3d 9cae 7cbd
00000290: ecbc 93be f48e b73d 73d5 a43d 41ab b9bd
000002a0: 56a9 d33d 079b b03e 82eb 1bbe 37cd 9ebd
000002b0: 1fee 9f3c a864 2abe 441d 073c 6e96 ebbc
000002c0: e066 d4bc f25f 183d c632 45be 2c76 e43d
000002d0: a064 8ebe 1665 a6bd 555e 18be f093 c9bd
000002e0: 121f a0bd 40f6 97be 30a4 f93d e9bf 433e
000002f0: d016 d0bc e779 52be a15e 27be e418 38be
00000300: 1fd8 f43c b60e 73bd e3ad 0e3d b9cd 59bd
00000310: cca5 a43b 9a3a 8e3e 0b07 cdbc 6c85 263e
00000320: e82f 523e cba0 6bbd 02d7 2abe 804b 8dbc
00000330: 66ea 51be 0192 60bb af36 2dbe 3cfe 89be
00000340: cec1 413e 055e 053e 5d85 7fbd 9c1a f7bd
00000350: 59c6 edbd 95e3 a83e 6a9c 103e ae52 173d
00000360: b403 a1bd d4d4 2c3e cc64 913e 1d25 833e
00000370: 05e0 53bd 94d7 55be 00fa a4be c499 b43e
00000380: 84db 88bd de67 1b3e 794b 67bb 7279 67be
00000390: 1fd8 243e 4c77 703e 3a7a 43bd 781b c33e
000003a0: f5b7 3dbe 623d 473e 6c83 1f3d dbbe 943e
000003b0: b16a 84be 4a7c 3dbd 41dc 783e 0c90 c13e
000003c0: ae99 d3bd cce5 f53d 2332 843e 828a 673e
000003d0: 1363 30be 4613 903e c0e3 4d3e 41ea 7bbe
000003e0: 7fc1 aa3e f38d 823e c8d9 1e3e 43d7 95be
000003f0: 6b4c 15be e080 51be 25c4 41be 429e 953e
